MR_model_training/mlp.onnx (onnx, 279955 bytes, 20 tensors)

model.0.weight f4 [64, 390]
000000 e3 a7 8f 3c e8 ac a4 bc 52 13 8f bc 42 57 ed bc
       0.01753611 -0.02010198 -0.017465267 -0.028972272
000010 ec 2d e3 bc 6d 9f f7 bb 34 e1 58 3d 76 d6 02 bc
       -0.027731858 -0.007556847 0.052949145 -0.007985702
000020 80 fc e6 3a 5d 9d 9c 3c 11 f2 1d bd 5f 64 8e bb
       0.0017622858 0.019118005 -0.03856093 -0.0043454613
000030 38 8b d0 3c 04 b5 ff 3c 03 e0 c0 3c 44 71 d5 bc
       0.02545701 0.031214245 0.023544317 -0.026054986
000040 9e c7 9a 3a f3 e8 15 3c cc 98 3a 3d 40 2e a8 bc
       0.0011808758 0.009149778 0.045555875 -0.020529866
000050 dd f5 37 bc 47 17 94 bc a4 2a 25 bd e6 ea f4 bc
       -0.011228052 -0.018077506 -0.04032387 -0.029897165
000060 15 8e 16 3d 6a 66 c2 3c bb d6 52 bc 06 f2 67 3d
       0.036756594 0.023730475 -0.012868579 0.056627296
000070 a0 2a 04 bd 81 aa 49 bc 16 cd 19 3c c3 99 30 3c
       -0.032267213 -0.012308718 0.009387275 0.010778847
000080 b5 29 80 3a 4f 7c 50 3b 66 40 b1 3c dc 40 10 3c
       0.0009778055 0.0031812375 0.021637153 0.008804526
000090 03 7f de bc 66 5c 1c bc ac 3d 59 bd 71 4c 83 3c
       -0.027160173 -0.009543514 -0.05303733 0.016027661
0000a0 4c 5c 5c 3d 0b 43 0d 3d 5a 29 01 3c 7f a2 22 3d
       0.05379896 0.034487765 0.007883394 0.03970575
0000b0 24 3f 08 bd e2 69 a7 3a 40 7e 3c 3d 6d c5 93 bb
       -0.03326334 0.0012772644 0.04601884 -0.004509619
0000c0 7d 10 e5 3c 1b 0c 14 3d 09 2a 5d bc 35 28 26 3c
       0.027961964 0.036144357 -0.0134987915 0.010141422
0000d0 40 ae fa bc 59 7a a1 bc 38 c6 6c bc c3 47 14 bd
       -0.030600667 -0.01971166 -0.014451556 -0.03620125
0000e0 8d 6e d2 bc ff 88 2e 3b d2 e2 4f 3c 88 7f 53 3c
       -0.02568748 0.002663195 0.0126883555 0.012908824
0000f0 a1 1e c5 3c 22 b9 49 3d 60 72 0e bd ce 09 0e 3d
       0.024062457 0.049248822 -0.034777045 0.03467732
000100 b7 09 e1 bc d0 c7 00 bd 43 fe 6e 3c 5b b6 06 bd
       -0.027470453 -0.031440556 0.014586988 -0.03288875
000110 ac c5 fc bc 97 a1 12 bd 96 82 10 3d b9 b5 10 bd
       -0.030855976 -0.035798635 0.035280786 -0.035329554
000120 54 1e 9a 3a c9 29 82 3c d1 2c 0c 3d 4d 19 03 bd
       0.0011758306 0.015889065 0.034222428 -0.03200655
000130 75 91 21 bd c9 02 fe bc a5 83 1a bd 7f b2 0d bd
       -0.03944536 -0.031007187 -0.037723202 -0.034594055
000140 b7 8d 92 bc 27 ed b8 3c c8 24 c8 bb 87 83 da 3c
       -0.01788984 0.02257402 -0.0061079003 0.026674045
000150 40 f9 39 3d a6 40 fd 3b cf e5 06 3c a5 1e 24 3b
       0.04540372 0.007728654 0.008233502 0.002504268
000160 9c 78 21 3d 72 4e 45 bc 1e 38 00 bd 88 b4 46 3d
       0.039421663 -0.012042629 -0.031303518 0.04851201
000170 13 39 00 bd d2 dd 0f 3d 7c 0e f4 bc 80 b6 b0 bb
       -0.03130443 0.035123654 -0.029792063 -0.0053928494
000180 6b a4 23 bd 3f 9a 1a 3d 25 d6 7d 3c 50 c6 03 3d
       -0.039951723 0.037744757 0.015492951 0.032171547
000190 fe b2 ae 3c 75 16 16 3d cb 90 72 3b 13 78 1f bd
       0.021325585 0.03664251 0.0037012573 -0.03893287
0001a0 a5 37 5b bd d2 51 50 3d 0f 2e 67 3d 0d 40 43 3c
       -0.053519864 0.05085928 0.05644041 0.011917126
0001b0 2c b1 c5 bc d7 ca f5 bc 3a 0e 6f bd 94 3f dd 3c
       -0.024132334 -0.030003948 -0.058363177 0.027007855
0001c0 09 8d 36 3b 84 f4 e6 bc 83 11 1d 3c 99 c2 2e 3d
       0.002785506 -0.028192766 0.009586695 0.04266605
0001d0 35 77 2d bd 69 bf f1 3c cf 60 2d 3d 9b 2d 26 3d
       -0.042350013 0.029510217 0.042328652 0.040570837
0001e0 f7 49 55 3c a9 4a 1e bd f5 49 a7 3c 43 90 e2 3c
       0.013018123 -0.03864542 0.020421008 0.02765668
0001f0 49 6f 33 3d 04 1d 77 bb d7 08 e8 3b 97 ee 25 3d
       0.0438073 -0.0037706504 0.007081132 0.04051074
000200 2a 03 80 3c 5d 68 ab 3c 33 cc 51 3d 36 5d a3 3c
       0.015626509 0.020923788 0.05122013 0.019941907
000210 81 3f 3b 3d a5 ea a5 bc e6 0c 69 3c eb 50 db bc
       0.04571486 -0.020253489 0.014224267 -0.026771983
000220 3f 05 39 3d d6 bb 19 3d 52 ee 0f 3d 20 74 5a bc
       0.04517102 0.03753265 0.03513939 -0.01333335
000230 48 df 29 bd c2 60 a1 3b db e8 11 3d c2 0b 0c bc
       -0.041472703 0.0049248645 0.03562246 -0.008547725
000240 ab e4 c7 3c 7f 9f 50 3d cb ab f5 bc c7 0e 35 3b
       0.02440103 0.050933357 -0.029989144 0.0027627216
000250 7a 2e c7 bc f1 69 6f 3c da 15 08 3d 70 3e be bc
       -0.024314154 0.014612661 0.033223964 -0.023223132
000260 73 ce 91 bb 56 90 2f 3d bc c0 34 bb 36 c2 f9 bb
       -0.0044496595 0.04286226 -0.00275807 -0.0076220287
000270 78 c2 94 bc 6b b8 e4 ba 26 ff 19 bd 92 eb 25 bd
       -0.018159136 -0.001744998 -0.037596844 -0.04050786
000280 b6 5d e2 3c 0a 31 c3 3c cf 44 bb 3b 81 87 4b bc
       0.027632575 0.023827095 0.0057149897 -0.012422443
000290 35 36 c0 bb 85 cf 40 bd 3b 97 e9 bc 26 54 c4 3c
       -0.005865837 -0.047072906 -0.028514495 0.023965906
0002a0 7c b8 dd 3c 1f a6 f3 bc 4b 73 03 bd cc 04 b3 3c
       0.027065508 -0.029742299 -0.032092374 0.021852873
0002b0 d8 25 0a 3d 97 d3 f7 ba fc 71 f7 3c ab 18 46 3c
       0.033727497 -0.0018907663 0.03020572 0.012090842
0002c0 0c 6d af 3b 0f 17 d0 bc 0a 4b 1f bb 2f 33 9e bb
       0.0053535756 -0.02540162 -0.0024306201 -0.004827879
0002d0 5f 67 e4 bc aa 85 16 3b a9 21 51 bd 93 1d fc 3c
       -0.027881322 0.0022967854 -0.05105749 0.03077582
0002e0 c6 3d 38 3d 8c e9 a6 37 c9 66 3b 3d 41 09 11 3c
       0.044980787 1.9897496e-05 0.04575232 0.008852304
0002f0 3e a0 2a 3d 61 13 12 bd d9 7d ce bc 49 7d 68 bc
       0.041656725 -0.035663012 -0.025206493 -0.014190027
000300 6a f5 f7 3c ef 9d 38 3d 2e ad 3c bd ac d8 0d 3c
       0.03026839 0.045072492 -0.046063595 0.008657616
000310 6e 11 3b 3d 91 ca f9 3b 13 18 84 bc cc 22 b3 bb
       0.04567092 0.0076230248 -0.01612476 -0.0054667946
000320 e6 19 16 bd 76 d7 e1 3c fb 81 8b bc a1 7a 21 3c
       -0.036645792 0.02756856 -0.017029753 0.009855897
000330 37 b1 05 3d 3c dc 51 3d 6e 91 d6 bc c6 32 35 bc
       0.03263971 0.051235422 -0.026192393 -0.011059469
000340 f3 1b b9 ba 8c 0a 04 3d a2 23 a7 bb 47 2d 41 3d
       -0.0014122709 0.03223662 -0.0051006833 0.04716232
000350 7e 19 03 3d 0b 33 01 bd 6e 64 20 bd 35 75 70 bd
       0.032006733 -0.03154282 -0.039158277 -0.058705527
000360 65 84 11 bd 79 7a b6 3c 07 a6 28 bd 33 c6 3c bd
       -0.035526652 0.022275196 -0.04117396 -0.046087455
000370 bc 18 f8 bc ca 1c 61 bc 4f 3c 20 3b a6 de e8 bc
       -0.030285232 -0.013739774 0.002445001 -0.02842648
000380 85 7b 9f bb 06 9e 17 bd f1 b8 be bc 2b f5 47 bd
       -0.0048670196 -0.037015937 -0.023281546 -0.048817795
000390 f5 ab a0 bc dd 16 e9 bc b0 65 0f bd fa ab b7 3c
       -0.019613246 -0.028453285 -0.035009086 0.022420872
0003a0 07 5a 6b bc 8c 2f 0d bd 8b c3 6d 3b 63 cb 16 ba
       -0.014364726 -0.034469172 0.0036279883 -0.0005752353
0003b0 19 9b 2f bd 7d 62 1d 3d 56 70 62 3d dc 3f 0a 3d
       -0.042872522 0.038424004 0.055282913 0.033752307
0003c0 3b ef 5c 3d a3 6a 27 3d c6 c8 7e 3c 34 2e 3b 3d
       0.053939085 0.04087318 0.015550798 0.04569836
0003d0 13 b0 d5 bc 93 85 c2 3c 04 c6 8b 3c 11 8e d4 3a
       -0.026084935 0.023745334 0.017062195 0.0016216655
0003e0 cf 82 1e 3c 57 6b 58 bd d6 9d 35 3d a9 63 d9 bc
       0.009674742 -0.052836742 0.044339977 -0.02653678
0003f0 7a a4 34 3d 3c c9 fd 3a 90 6f 6a bd 76 5b d0 bc
       0.04410217 0.0019362341 -0.0572353 -0.025434237

model.0.bias f4 [64]
000000 af 9f 8f bb 33 7d 82 3d 24 4e e8 bc 31 c9 87 bc
       -0.0043830494 0.06371536 -0.028357573 -0.016575428
000010 38 e2 19 bc 96 33 29 3d 6d e2 2c bd 0f c1 20 bd
       -0.009392314 0.04130896 -0.042208124 -0.039246615
000020 95 eb f0 bc dc 2d d1 bc 04 15 fd bc 97 8f 2c bc
       -0.02940921 -0.025534563 -0.03089381 -0.010532281
000030 11 e5 24 3d eb 24 67 bd 02 8a 68 3d 07 9f 05 bc
       0.040257517 -0.056431692 0.05677224 -0.008155591
000040 b0 84 30 bc 78 e4 40 bb 07 54 5d 3c b7 2b be bc
       -0.010773823 -0.0029433053 0.013508803 -0.023214204
000050 37 e5 04 3d 88 8a 28 3d 9e d4 83 bc 10 ee 04 3c
       0.03244516 0.04114774 -0.016092595 0.008113399
000060 87 16 fc bc 5a ee 9f bd ce 1d 0b bd 37 01 f8 bc
       -0.03077246 -0.07809134 -0.03396397 -0.030274017
000070 33 4f c1 bc 92 5f bf bd 43 73 98 bc fd 57 32 bc
       -0.023597335 -0.093444005 -0.018609649 -0.010885236
000080 fb 20 0e bd b3 41 4f bc bc 85 06 bc f8 5c 47 3c
       -0.03469942 -0.012649941 -0.008210596 0.012168162
000090 57 d8 28 bd 1f fd 1c 3b bf 91 06 3d ae fd 6b bd
       -0.041221943 0.0023954583 0.032853838 -0.057614975
0000a0 77 d9 5a bc 63 e8 5d bd 7e 45 8d bd a7 10 95 ba
       -0.013357512 -0.0541767 -0.0689802 -0.0011372761
0000b0 e3 3c da bc ee c9 8a bd 98 54 85 3d 13 50 73 bc
       -0.026640361 -0.06776796 0.065102756 -0.014850634
0000c0 dd f8 c9 bc 11 4b da bb 14 02 0d 3d 8b 54 33 bd
       -0.0246548 -0.0066617806 0.03442581 -0.0437818
0000d0 90 f6 c6 bc b0 50 5e 3d 26 59 1a bd 0a 63 43 bd
       -0.024287492 0.05427617 -0.037682675 -0.047701873
0000e0 3f 02 26 3c 17 44 e7 39 88 ae 96 bc ad e6 1b bd
       0.010132371 0.00044110484 -0.01839377 -0.038061786
0000f0 54 d6 cf bc cb f6 51 bc e7 c4 1d 3d b8 54 4f bd
       -0.025370754 -0.012815188 0.03851786 -0.050617903

model.2.weight f4 [64, 64]
000000 16 47 fb 3d 37 80 67 3e 58 9b d7 3c b0 be a0 bc
       0.12269418 0.22607504 0.02631919 -0.019622177
000010 f6 14 bc bd 20 f7 a2 3b e6 cd 3b bd 1d 01 ee bd
       -0.091836855 0.0049733073 -0.045850657 -0.11621306
000020 08 dc 84 be 6f d8 8c bd b0 e9 db 3d dc 75 43 bd
       -0.2594912 -0.06877219 0.10737932 -0.04771982
000030 bd cf 99 bb 8c 52 20 3e 38 dd a9 3c 78 3e 5a bd
       -0.004693954 0.15656489 0.020735368 -0.05328223
000040 dc 0d d1 3d 7e 48 69 be 74 e9 1d 3e 50 ef fe bc
       0.102077216 -0.2278156 0.15421087 -0.031119972
000050 e0 72 8e bb f0 00 df bc fa f6 f0 3d 1a f1 3a be
       -0.0043471903 -0.027222127 0.11765857 -0.18256035
000060 68 38 78 bd aa 78 d1 bd a0 ef 72 3c 40 26 b6 bc
       -0.06060067 -0.10228093 0.014827639 -0.022235036
000070 be 70 f2 bd 5f ec 88 3c 1c 8c bc bd 1e dc 74 3e
       -0.1183791 0.016714273 -0.09206411 0.23912093
000080 5d 70 50 3e 60 1a f0 bb 20 ac bc bc 84 f7 95 3d
       0.20355363 -0.007327363 -0.023031294 0.073226005
000090 5a 80 d9 bd dd 3f a1 3d 29 c5 ef bd ea 3d 67 bc
       -0.10620184 0.07873509 -0.11707527 -0.014113883
0000a0 dc d8 24 3e f4 dd 1b 3e c5 10 06 be ac 07 a0 bd
       0.1609835 0.15221387 -0.13092335 -0.07813963
0000b0 40 8e fb 3b 98 b9 88 3d d9 06 91 3c 50 4f 82 3c
       0.0076768696 0.06676024 0.01770346 0.01590696
0000c0 d2 b1 91 bd 70 75 ca 3d d0 f2 6c bc d4 24 02 be
       -0.07113995 0.09885681 -0.014462188 -0.12709361
0000d0 e0 91 f1 bb 95 5d c8 3d 74 5e 3e 3d 2e c7 fe 3d
       -0.007372126 0.09783474 0.046476796 0.12440334
0000e0 f0 7e 32 3c c0 b1 03 3b f8 a4 43 bd 74 88 3d 3d
       0.010894522 0.002009496 -0.04776475 0.04627271
0000f0 24 e7 1c bd d3 fb 67 be bc 90 ab bd 28 f4 63 bd
       -0.03830637 -0.22654657 -0.08377215 -0.055652767
000100 a9 b0 d1 3d 49 a1 bb bd d9 22 aa 3d 05 f2 d9 bd
       0.102387734 -0.09161622 0.08307428 -0.10641865
000110 da b4 f6 3d db 97 1b bb 98 d6 3c bc 8b 48 f4 3d
       0.120462134 -0.0023741636 -0.0115257725 0.11927899
000120 cd 49 0c 3c 18 65 0e 3e 62 17 77 3d a1 32 a1 3d
       0.008562517 0.13905752 0.060325034 0.07870985
000130 1e 3d b2 bd e5 df 82 3d ca 08 2d 3d 7d c9 c0 bd
       -0.087030634 0.06390361 0.04224471 -0.09413431
000140 0a 4f c2 bd fa 92 02 3e f6 75 10 3d 70 d3 ed bd
       -0.09487732 0.1275138 0.035268746 -0.11612594
000150 16 54 80 3d 90 5f c0 bc a8 24 95 bc 46 c8 c8 bc
       0.06266038 -0.023483068 -0.018205956 -0.02450956
000160 3a 1d cc bd e2 6f b5 3d 84 71 01 3d e8 3d ba bd
       -0.09966512 0.088592306 0.031602398 -0.09093839
000170 5b 3d c1 bd 15 7f 88 bd ab 63 8c 3d 6a 13 1b 3e
       -0.09435531 -0.06664864 0.06854948 0.15144125
000180 dc 62 87 3b 62 09 25 bd bf 94 b1 bd da 06 77 bb
       0.004131658 -0.04029215 -0.08670949 -0.0037693293
000190 d9 5a 2f 3c 23 0f 97 3c ee 10 0a 3e 72 a4 a5 3d
       0.010702812 0.018439835 0.1348302 0.08088006
0001a0 a7 88 e4 3c 5e ea 90 3d e1 c9 ee 3d cd 92 9b bd
       0.027897192 0.07075952 0.11659599 -0.075963594
0001b0 8c 9f 9d bc 62 9e cb bd 8c 9a 82 bc 3e dc be bc
       -0.019241117 -0.099423185 -0.015942834 -0.023298379
0001c0 4e 90 eb bd c2 8c 68 bd 4b 3f 3a bd 50 df 4b 3d
       -0.11502133 -0.056774862 -0.045470517 0.049773514
0001d0 d5 19 60 bc 34 b3 d4 bd 3c cf af bd d2 06 9e 3d
       -0.013678034 -0.10385743 -0.08584449 0.077161446
0001e0 b1 1a 86 bd 69 13 b2 bd bf d1 d1 bd c3 cb c2 3d
       -0.0654806 -0.086951084 -0.10245084 0.09511521
0001f0 ae 84 ac bd 76 6a bb 3d 90 3a cb bc a8 f0 c2 bd
       -0.08423744 0.09151165 -0.024808198 -0.09518558
000200 b3 55 53 bd a1 16 f6 bc c7 11 ba bd 70 4b 37 bd
       -0.0515954 -0.030040087 -0.09085422 -0.044749677
000210 c0 75 5e 3b 16 35 ff bd ec c1 21 bd 04 7d 63 be
       0.0033944696 -0.12461297 -0.03949158 -0.22215658
000220 6a 07 11 be 04 b6 03 3d e5 8e 88 bd 61 f2 9d bd
       -0.14162984 0.032156006 -0.0666788 -0.07712246
000230 92 62 81 bd 6b af fb 3c d7 ae 1f 3c b5 d6 22 3c
       -0.06317629 0.030723294 0.009746275 0.009938885
000240 8f e3 cb 3c cb 89 17 be 32 50 c1 bd 84 f0 a6 bc
       0.024888782 -0.14798658 -0.09439124 -0.020378359
000250 6e 06 de 3c 17 3a fb 3c 58 7e 8d bd 05 74 66 be
       0.027102675 0.030667348 -0.06908864 -0.22505195
000260 c8 65 f6 3c 58 ad cc 3d 7a 2b 87 bd b8 9c ea bd
       0.03007783 0.09994 -0.06600089 -0.11455673
000270 26 b9 e9 3d 75 f2 af bc b0 5a 18 3c 12 86 2f bd
       0.114122674 -0.021477917 0.009298965 -0.04285247
000280 d7 d9 08 3e e1 58 25 bd 74 32 c5 3d 4c 27 3c 3d
       0.1336435 -0.040367965 0.09628764 0.045935914
000290 51 79 15 be f5 be 00 3e 7e 2a 9e bd 35 a0 4a be
       -0.1459706 0.12572844 -0.077229485 -0.19787677
0002a0 df 4e 98 3c 54 a3 fb 3d be ed 0d bc bd a0 e8 3d
       0.018592296 0.12287012 -0.008662639 0.113587834
0002b0 46 26 b7 bd 9f 5b 22 3e 51 fc 08 3e 3b 8e a7 bd
       -0.08942847 0.15855263 0.13377501 -0.08181425
0002c0 36 86 d9 3d c1 39 45 3d 7e 40 4e 3d 91 19 9e bc
       0.10621302 0.04815078 0.050354473 -0.0192993
0002d0 e8 3e 8a 3d c5 76 09 be 58 cb f5 bd 90 17 57 bc
       0.0675028 -0.13424213 -0.12001675 -0.013128176
0002e0 46 b4 61 3d fd 02 1c bd 60 52 30 3c 92 ed 90 3d
       0.055103563 -0.038088787 0.010761827 0.07076563
0002f0 64 49 1b 3d 38 c5 07 be b9 84 8a 3d 52 b0 0e bd
       0.037911788 -0.13258827 0.06763596 -0.03483612
000300 82 dc ae 3d 80 9b 26 3d 40 cf 1e bd 54 57 d4 3d
       0.08538152 0.04067564 -0.038771868 0.10368219
000310 48 a9 07 3d 2a 74 f1 3d 20 24 e4 bd e0 a4 87 bd
       0.033120424 0.11789735 -0.11139703 -0.06623244
000320 d9 b9 16 3d 70 c1 d4 bc 6c 4e eb 3d 98 2e 73 bd
       0.036798332 -0.025971144 0.11489567 -0.059370607
000330 93 ba 05 bd 66 a1 9e bd cd 12 99 bd ca 32 df bd
       -0.032648634 -0.07745628 -0.07474289 -0.10898359
000340 f4 c7 bb 3d 98 1d 27 bd 3f 77 8f bc 5c a6 a9 3d
       0.091689974 -0.040799707 -0.017512916 0.08283684
000350 70 78 73 bc 94 fc 26 bd 4a e4 87 3d 20 d5 87 3d
       -0.0148602575 -0.04076822 0.066353396 0.06632447
000360 60 ba a9 3b 53 42 9a bd 78 a3 e6 3c f0 6c 0c 3c
       0.0051796883 -0.075321816 0.02815412 0.008570895
000370 00 b9 b2 3a 2d 9d 7f bd a6 0b 8e 3d be 02 a2 3d
       0.0013635457 -0.062405754 0.069358155 0.07910679
000380 f2 91 a1 bd 40 9c 53 bc b0 36 b8 bc 4e 07 8c bd
       -0.07889165 -0.012915671 -0.022487015 -0.06837331
000390 70 f6 5d 3d 47 a6 e0 3d 4f f5 4d bd 29 c7 ce bd
       0.0541901 0.10969215 -0.050282773 -0.100965805
0003a0 24 e8 ad 3d 09 da d8 3d b9 ae 08 be 10 9e 1f bc
       0.08491543 0.10588462 -0.13347901 -0.009742275
0003b0 c0 42 76 bd 0a 5d 54 bd ea 58 e0 bd 70 0b 26 bd
       -0.06012225 -0.05184654 -0.10954459 -0.04053825
0003c0 20 52 d5 bd 36 17 84 3d 5c 43 3c bd a2 df 03 be
       -0.10416055 0.0644974 -0.045962676 -0.12878278
0003d0 6a 74 e6 bd 5c a6 b3 3c 58 2d 23 bd c0 2b 1c 3c
       -0.11252673 0.021929912 -0.039838165 0.009531915
0003e0 f4 05 8d 3d 36 8f 98 bd 74 21 f1 bd b8 88 a1 3c
       0.06885901 -0.0744919 -0.11773959 0.019718513
0003f0 cc bf 17 bd 88 3d cb 3c 20 a2 ef 3b 4e fc ac bd
       -0.037048146 0.024809614 0.007313028 -0.08446561

model.2.bias f4 [64]
000000 6f 14 47 bd aa 50 31 3d aa 8f 13 3c 00 75 3c be
       -0.04860347 0.043289818 0.00900642 -0.18404007
000010 32 03 f0 3c 35 d1 e7 3c d6 51 c6 bc a9 9b 3c be
       0.029298399 0.028298 -0.024208944 -0.18418755
000020 fc dd 72 bc 27 27 19 be 9b 39 d4 bc 5b 5b 9f bd
       -0.014823433 -0.14956342 -0.025906375 -0.077810965
000030 db 52 3a 3e 2b 39 e3 bd 50 05 55 bd 04 6c cf bd
       0.1819567 -0.11094888 -0.05200702 -0.10128024
000040 16 59 f9 3d 79 6b 00 be 5c 5f 85 3a b1 c5 c5 3d
       0.12175195 -0.12540998 0.0010175514 0.09656847
000050 8a 86 06 be e6 4f 2d be 4e cc da bd ce 00 24 bd
       -0.1313726 -0.1692501 -0.10683499 -0.04003983
000060 59 7c a8 bc 54 52 06 be 6e 2e 7c bd d5 d9 51 3c
       -0.020567106 -0.13117343 -0.061567716 0.012808283
000070 c6 4e 88 3c 5e 2a 10 3b fc 4e ab 3d 98 33 e3 bd
       0.016639125 0.002199791 0.083646744 -0.11093825
000080 51 6c 22 be 67 fa ee 3c 32 05 3c 3b 24 8a 08 3d
       -0.15861632 0.029172136 0.002868962 0.033334866
000090 7a 8d a7 3c d2 8a 8a bc 24 08 f0 bb 86 85 01 be
       0.020453203 -0.016911898 -0.007325189 -0.12648591
0000a0 7d a0 39 bd 8f 46 c6 bd 42 b4 42 be a6 31 01 3e
       -0.04531907 -0.09681427 -0.19014075 0.12616596
0000b0 12 c9 0e be 8b f7 d9 3b f9 55 91 bd 06 e3 90 bd
       -0.1394389 0.006651824 -0.07096476 -0.07074551
0000c0 75 33 42 be 82 b4 4c be 49 2f 54 3d 36 b6 e9 3c
       -0.18964942 -0.19990733 0.051802907 0.028529268
0000d0 42 4b d2 bc 37 a8 24 3d b1 39 2d be 3b dd 00 be
       -0.025670651 0.040199485 -0.16916539 -0.12584393
0000e0 77 9b 5b 3d ce 53 c5 bd 53 08 7d bd 22 7a 83 bc
       0.05361506 -0.09635125 -0.061775517 -0.016049448
0000f0 d7 21 f5 3d b2 f6 06 bd 87 1a 5e 3c 45 91 f3 bb
       0.11969345 -0.03295011 0.013556129 -0.007433089

model.4.weight f4 [64, 64]
000000 d5 e8 c4 bd 86 0a 06 3d 7f e3 be 3d f0 6b b0 3c
       -0.09614722 0.03272488 0.09320735 0.021535844
000010 26 27 80 3d f3 ba ac 3d 55 8a e8 3c fc 48 30 3d
       0.06257467 0.08434095 0.028386274 0.043038353
000020 62 f9 95 3c 50 4d b7 bd 1f 49 df bd b0 81 fd bc
       0.018307392 -0.08950293 -0.109026186 -0.030945629
000030 24 da ec bd ac bb 31 3c 7b 1b d2 3d 48 bc 62 3d
       -0.115650445 0.010847967 0.10259148 0.05535534
000040 71 5e 5b bd 00 e1 1a bd 0e d6 b4 bd 9c 0d fe 3c
       -0.053556863 -0.037812233 -0.0882989 0.031012349
000050 e1 24 24 3d 82 58 44 bd 4e 19 fb 3d 12 c3 b5 bd
       0.040074233 -0.04793597 0.12260686 -0.08875097
000060 00 77 41 3c 9e 5d 04 bd be 68 c3 bd 53 ca da 3d
       0.011808157 -0.032315843 -0.09541462 0.106831215
000070 f7 46 20 3d ab c2 6b 3d 94 a4 ed bd 62 2a b3 bd
       0.039130177 0.057558697 -0.116036564 -0.08748318
000080 66 40 b6 bd 95 a1 ce bd 56 a2 42 3c eb 8c 02 be
       -0.08899002 -0.10089413 0.011879524 -0.12749068
000090 fc 8b 8c bd 69 82 3f 3c bf b9 a5 3d 2a bc 49 3d
       -0.068626374 0.011688807 0.08092069 0.049251713
0000a0 10 c0 9c bd 20 60 97 3b db 2d aa bd 34 e3 1a 3d
       -0.076538205 0.0046196133 -0.083095275 0.037814334
0000b0 20 4d 4b bc cc fa 77 3d 7c 84 f5 3d f8 bb be bd
       -0.012408525 0.060541913 0.1198816 -0.09313196
0000c0 81 74 80 3d e2 f9 d9 bd 0d 7e d8 3c 88 dc 83 3c
       0.06272221 -0.106433645 0.026427293 0.016096368
0000d0 fd 27 f0 bd 74 ef 2f bd f1 86 c1 bd 6e fe 8a 3d
       -0.11726377 -0.04295297 -0.09449566 0.0678681
0000e0 9c 88 e4 bc bf 8d 90 bd f0 f6 9a 3c af 09 8a bd
       -0.027897172 -0.07058286 0.018916577 -0.06740128
0000f0 fe 5c 06 be b1 f3 8d bd 0a c1 d2 bd 0b cb 6e bd
       -0.13121411 -0.06931246 -0.102907255 -0.058299106
000100 b7 8d 32 bd 7d 4f 72 3d 74 b5 99 3d 92 43 f0 bd
       -0.04359218 0.059157837 0.075053126 -0.11731638
000110 03 0b 8f bd 8d b0 3b 3d a0 9e 8d bb d1 87 21 3d
       -0.06984522 0.04582267 -0.004321888 0.039436165
000120 14 4e d5 3d c1 47 95 3d 05 30 e4 bd a5 01 61 bd
       0.10415283 0.072890766 -0.111419715 -0.05493321
000130 00 94 f7 bd b5 6e 9a bd 20 7c 48 3d ac cd eb 3d
       -0.12088776 -0.07540647 0.0489465 0.11513838
000140 d5 e6 95 bd 10 58 94 bd 73 17 a0 3d 08 fb d2 bd
       -0.07319418 -0.07243359 0.078169726 -0.10301787
000150 78 be 9b bd 06 86 e2 bd d1 11 d3 bd 3c 43 08 bd
       -0.076046884 -0.11060719 -0.103061326 -0.033267245
000160 aa 16 fc bd d7 49 8f bc ca b5 e1 bd c7 1f 4b bd
       -0.1230901 -0.017491264 -0.11021002 -0.049590852
000170 66 ba ae 3d 62 24 c9 3d b6 05 62 bb b1 14 b3 bc
       0.085316464 0.098213926 -0.0034488267 -0.021860452
000180 98 6e aa bd b3 31 72 3c 81 aa c3 3d 29 a8 b6 bd
       -0.08321875 0.014782357 0.095540054 -0.08918793
000190 bf 8f 22 ba 1e 08 41 3d 42 75 8a 3c 38 e3 79 bd
       -0.00062012294 0.04712688 0.016901616 -0.06100771
0001a0 74 69 c4 bd d8 41 ea bc 58 fd f4 3c 10 71 6f bd
       -0.09590426 -0.02859585 0.02990596 -0.058457434
0001b0 b9 db 8e ba 9c 8f 6b bc 00 6d 05 bd 06 4f 1b bd
       -0.0010899223 -0.014377501 -0.032574654 -0.03791716
0001c0 e7 4b 94 3c 00 ce 4f bc fb 13 bf bd 97 aa 17 bd
       0.0181026 -0.012683392 -0.09329983 -0.03702792
0001d0 64 73 84 3d d0 6c b8 3d e8 ee 97 bd 3c 26 04 bd
       0.064673215 0.09005129 -0.074186146 -0.032263026
0001e0 f8 57 4d 3c 32 9d e4 bd 62 fd be 3d 26 b9 80 bd
       0.01253318 -0.11162795 0.09325673 -0.06285314
0001f0 00 79 5b bd ca 09 67 3d 44 52 58 3d cb 50 39 bc
       -0.05358219 0.05640582 0.05281283 -0.011310766
000200 94 a5 a0 3e e3 01 77 3c 36 8b e9 3d 3f 38 aa 3d
       0.31376326 0.015076133 0.114035055 0.08311509
000210 da f3 01 be 96 07 2a bd 3a 4a 65 be 25 f4 27 3e
       -0.12690678 -0.04151114 -0.22391596 0.16401727
000220 8e 4c a5 3d 02 15 f0 3d 86 a2 38 3e bd 22 a1 3d
       0.08071242 0.11722757 0.18030748 0.07867954
000230 6b d1 fa bc fc 63 0f be 57 6c b8 bd fa 5f bc 3d
       -0.030617436 -0.14002985 -0.09005039 0.091979936
000240 6e d4 35 bc 32 60 9c bc 9e 2d 0b bd e8 33 65 bc
       -0.01109801 -0.019088838 -0.03397905 -0.013989426
000250 64 ee 0b be b7 75 66 bd b2 6d 4d bd b0 fe 51 bd
       -0.13665158 -0.056264605 -0.05015344 -0.05126828
000260 31 93 42 3e 87 e2 e1 3d 86 5e 5a 3d 0b f1 ad 3d
       0.19001462 0.11029535 0.0533128 0.08493241
000270 64 1d 50 bd f9 0b 84 be 15 a8 12 be 50 62 8e bd
       -0.05080928 -0.25790384 -0.1432193 -0.06952345
000280 50 ca a0 3d 79 7d 0d bd 93 b0 a2 3c 32 50 37 be
       0.07851088 -0.03454349 0.019859588 -0.17901686
000290 e2 f4 25 be 3c 9a 61 be de 62 a4 bc d7 a2 66 3d
       -0.16206697 -0.22031492 -0.020066675 0.05630764
0002a0 c8 a5 6e 3d 6a d1 38 3d d1 7a 26 bc 18 46 0e 3d
       0.05826357 0.045121588 -0.010161118 0.034734815
0002b0 45 35 8b be 39 df 35 3d 89 91 fa bd 47 25 aa 3c
       -0.2718908 0.044402335 -0.1223479 0.020769728
0002c0 c3 d2 09 3e ce 33 a0 bd cc f6 0b 3e 47 2f df bd
       0.13459305 -0.07822381 0.13668364 -0.10897689
0002d0 4e 91 1a 3e 2c bb 1b 3e a2 d9 64 b9 ff 7f 4f 3d
       0.15094492 0.15208119 -0.00021824849 0.050659176
0002e0 b1 68 99 3d 3f 5f 49 3d 6a 53 d9 3b 63 38 1a 3d
       0.074906714 0.0491631 0.006632258 0.03765143
0002f0 3c 61 af 3c 83 3a 2f 3d c0 43 21 be 2b 9c 16 bd
       0.02140867 0.04278041 -0.15748501 -0.036770027
000300 dd 26 96 bd 21 8f 80 bc dd 3e e2 bd 54 4e 82 bd
       -0.07331631 -0.01569325 -0.110471465 -0.06362596
000310 8f 37 48 3b 95 ad 1b be 30 8e a5 3e 00 7c 6b be
       0.0030550694 -0.15202935 0.32335043 -0.22996521
000320 85 d6 9c 3d d1 b1 2e bd a6 02 d1 bc 98 87 a2 be
       0.07658104 -0.042650048 -0.025513958 -0.31744075
000330 42 91 99 be ac 04 92 3e 92 86 91 3e 2a 5f f9 3c
       -0.29993635 0.2851919 0.28422982 0.030440886
000340 95 1d 41 be 84 71 ee 3d 08 a1 99 3d 17 14 91 be
       -0.18858941 0.11642745 0.075014174 -0.2833564
000350 ae 56 12 3e be 31 9f 3e 10 da f3 3d 29 2e 2e 39
       0.14290878 0.31092638 0.119068265 0.00016611129
000360 0d c7 a4 bd 0f 7d bc 3c 1d 06 91 bd 1b 85 04 3e
       -0.080457784 0.023008851 -0.07081244 0.129414
000370 7c 0e c5 bc d1 06 4a 3d ac 98 79 bc b0 42 8e 3e
       -0.024054758 0.049322907 -0.015234154 0.27785254
000380 40 a2 03 bd 24 80 b0 3d a5 28 47 be 54 e9 d0 bd
       -0.032137156 0.08618191 -0.19449098 -0.10200754
000390 95 6b e2 3d 60 64 e4 bb ef 0c 9f bd 4b b7 85 3d
       0.11055676 -0.0069699734 -0.07766139 0.06529101
0003a0 d3 20 ef bd b6 67 b8 3d 5c cf 98 3e c8 de 32 be
       -0.116761826 0.09004156 0.29845703 -0.17467797
0003b0 0b 15 61 bd 6c 20 69 3e 74 8d ac 3d a4 7b 7c bd
       -0.05495171 0.22766274 0.084254175 -0.06164135
0003c0 1a 99 31 be a4 9a aa 3e f9 a2 a1 bd 04 fd d7 bc
       -0.1734356 0.33321106 -0.07892413 -0.026365764
0003d0 66 f1 ad 3c 60 67 38 be b3 45 5a 3e 03 88 9a bd
       0.021233272 -0.18008184 0.2131565 -0.075454734
0003e0 cc 4c da bd 1c 31 aa 3e 5e f1 81 be d8 40 04 3c
       -0.10659179 0.33240592 -0.2537946 0.008072101
0003f0 d1 c3 2f 3c c1 14 92 3d c1 32 ea 3d af 98 39 be
       0.010727839 0.07132865 0.11435462 -0.1812465

model.4.bias f4 [64]
000000 e6 96 25 bc 4d 9c e5 bd 64 13 c2 3d fd d6 1a be
       -0.010106778 -0.11211453 0.09476355 -0.15121074
000010 f0 8d d4 bd 8f cd 29 bd be 88 01 bd cf fb 04 be
       -0.10378635 -0.0414558 -0.031624548 -0.12986682
000020 3e 32 6c 3d c6 63 6b bc 58 0f 12 be 7c 63 36 bd
       0.057665102 -0.01436705 -0.14263666 -0.04452847
000030 cc 74 71 3d 81 6f c7 3d 26 be fa bd 05 a7 25 be
       0.058949277 0.097380646 -0.12243299 -0.16176994
000040 2d dc da bb 3a 13 c5 bc f7 50 b5 bd 0a 86 80 3d
       -0.006679079 -0.02405702 -0.088533334 0.06275566
000050 e5 b8 d5 bd 7b 1c 04 be 44 d6 2b 3d 84 28 4d bc
       -0.104356565 -0.1290149 0.041952386 -0.012521867
000060 59 e3 88 3e 30 90 de bc 85 de 2c 3c 98 a0 f4 3c
       0.26735952 -0.027168363 0.0105511 0.029861733
000070 37 89 2a bd fd ba 87 3b 34 37 f9 bd ae bb bc 3d
       -0.041634765 0.004142164 -0.12168732 0.092154846
000080 42 d7 8a 3c fc 5c 94 bd d5 33 c5 bd 51 3f fe bd
       0.016948346 -0.07244298 -0.09629027 -0.124144204
000090 c7 e6 38 be ff 38 15 3c 9a bf 59 3d f4 58 2c 3d
       -0.18056785 0.009107827 0.05316124 0.04207702
0000a0 6e 65 33 3c 90 6c e9 bd 58 a6 06 be d0 62 d5 bc
       0.010949476 -0.1139766 -0.13149393 -0.026048094
0000b0 8a 9c 2f be 3c f7 37 be 88 05 45 be fc 6f ed bd
       -0.17149559 -0.17965406 -0.19240391 -0.11593625
0000c0 f8 b7 b0 bb c7 63 4e bd da 8d c6 bd d1 f7 83 bd
       -0.0053930245 -0.050388124 -0.09695025 -0.064437516
0000d0 59 ea 9e bd 3d fb 4d be ff bc 28 3e 0a 1d 44 3d
       -0.07759542 -0.20115371 0.16478346 0.047879256
0000e0 0d da 17 bb c7 6b 03 be 63 af ab bc 91 b9 d2 bd
       -0.002317074 -0.12834083 -0.020957654 -0.102893
0000f0 a7 87 6e be ab 9a 8c bc 56 80 be bd e1 83 c5 3d
       -0.23293935 -0.017163595 -0.09301822 0.096442945

model.6.weight f4 [64, 64]
000000 d4 ad a9 3b c7 27 29 bd ff b1 07 be 18 a4 82 3d
       0.0051781926 -0.0412977 -0.13251494 0.06378955
000010 4e 59 82 3c 62 fe 6c bd 56 65 ec 3c 31 46 16 3c
       0.015911724 -0.057859786 0.028856914 0.009172008
000020 d1 49 b1 bd cd de 35 bd e0 d2 b8 3d 10 86 06 3d
       -0.086566575 -0.044401933 0.09024596 0.032842696
000030 2a 9a 54 bd 02 cb 37 bd 40 db bd bc 0b 80 a8 bc
       -0.051904835 -0.044871338 -0.023175836 -0.020568868
000040 9f 81 07 3e b4 2e cb 3d 08 77 de 3c d5 6e 07 3d
       0.1323304 0.09921017 0.027156368 0.033064682
000050 c4 9e 26 bc ab a9 0f 3c 90 28 eb bd e5 d4 99 3d
       -0.010169689 0.008768479 -0.11482346 0.075113095
000060 cf 48 c6 be 32 b7 dc 3d c4 47 a9 3b 12 be 18 3d
       -0.38727424 0.10777129 0.005166026 0.03729064
000070 c5 91 fa bb 40 79 e5 3c 4f 42 a2 3d 96 c9 f9 3d
       -0.0076467716 0.028011918 0.079228036 0.121966526
000080 59 30 55 3c 12 ab 50 bb 0a 3b 22 bd 84 e6 f1 bd
       0.013012015 -0.0031840247 -0.039607085 -0.118115455
000090 ec 50 fb 3d 3f 31 91 bd d0 a6 2c 3e 18 9b b3 bd
       0.12271294 -0.07089471 0.16860509 -0.08769816
0000a0 cd 83 03 3d 63 c1 d7 bb ba 81 a4 bc 9a 2b 50 bd
       0.032108117 -0.006584333 -0.02008139 -0.05082283
0000b0 86 21 99 bd 33 84 dc 3d f1 17 eb bd a9 ec 22 3e
       -0.07477097 0.107674025 -0.11479176 0.15910591
0000c0 49 e3 a6 bd 47 77 17 3e 29 7e e4 3d 26 b8 3c 3e
       -0.0814882 0.14791594 0.11156876 0.18429622
0000d0 84 79 c9 bd ee e8 e7 bc 39 a3 28 be 39 c6 82 bd
       -0.098376304 -0.028309312 -0.16468515 -0.06385464
0000e0 d1 29 f4 3d 1b 0b 10 be 9d 96 3e be bc bb 42 3c
       0.11922038 -0.14066736 -0.18612142 0.01188558
0000f0 9e 10 14 3e 05 a8 2a bd 70 20 a8 3c 58 e1 83 bd
       0.14459464 -0.041664142 0.02052328 -0.06439465
000100 da 20 f8 3d 70 fe 63 bd 47 5f 94 bc de 6d 4a 3d
       0.12115641 -0.055662572 -0.018111838 0.049421184
000110 2a 40 d5 3d 1e 1a 82 bd 7b 1d 91 3d ce ce d2 3d
       0.10412629 -0.06352638 0.07085701 0.10293351
000120 50 79 14 bd 1a 13 98 bd 64 55 9e bd e8 ff ea bd
       -0.036248505 -0.07425518 -0.07731131 -0.114745915
000130 b2 8a dd bd a7 c8 e0 bd 64 5c 51 3d ef 3c 85 3d
       -0.1081747 -0.109757714 0.0511135 0.06505763
000140 5b 95 0d be e6 54 d6 3d bc 77 5b 3d e2 44 d7 3a
       -0.13826506 0.10465412 0.053580984 0.0016423727
000150 a6 e0 89 3d 02 24 e7 3d 65 d4 27 bd d8 c8 4b bd
       0.067323014 0.11286165 -0.04097404 -0.049752086
000160 a2 ee a9 3d 63 46 9f bd c9 80 db 3d 0a 0c ac 3d
       0.08297469 -0.07777097 0.10717923 0.08400734
000170 7d 99 96 3b e6 af 0b 3a a4 f5 0b be 0c 7c 01 bb
       0.004595934 0.000532864 -0.13667923 -0.0019757776
000180 70 2e eb 3b ca 86 ae 3d 2c fb ea bd 56 41 c7 bc
       0.0071771666 0.08521803 -0.114736885 -0.024323147
000190 a9 bf 88 bc 23 3f e2 bc a5 7f f5 3b c0 0a 78 bb
       -0.016692953 -0.027617997 0.007492023 -0.0037848204
0001a0 47 65 b5 bc 7a 04 bb 3d 81 f5 06 be 18 e5 f4 3d
       -0.02214302 0.09131713 -0.1317959 0.11957759
0001b0 e0 3d 08 be 57 8b f2 bd 59 7f 2b be 73 8f d3 bc
       -0.13304853 -0.11842983 -0.16747798 -0.025825238
0001c0 f2 ef 15 bd ff 4e d2 3c 1e e6 53 3d b9 60 09 3d
       -0.036605783 0.025672434 0.05173313 0.033539508
0001d0 de 8e 4f 3d 5d e7 44 bd 47 bc 32 3b 5f 4e 21 3c
       0.05067336 -0.048072208 0.0027272867 0.009845345
0001e0 eb 9a 8f 3d 88 55 9e 3c a0 54 1c 3d 40 b6 f9 3d
       0.0701197 0.019327894 0.038166642 0.121929646
0001f0 8f e4 d3 bd 09 08 3d be 68 c5 14 3d 96 80 94 3c
       -0.103463285 -0.18460096 0.036321074 0.01812772
000200 60 ce d0 3d b8 5e c2 3c aa 41 b4 3d 19 dd c9 3c
       0.10195613 0.023726806 0.08801587 0.02464156
000210 0a c1 9b 3d 0a 30 96 3d 2d 80 28 3d 28 dd 79 bd
       0.07605179 0.073333815 0.041137863 -0.061001927
000220 d5 d3 37 bc cb 5a b7 bc 91 c1 02 be ea e8 a7 bd
       -0.011219938 -0.02238216 -0.12769152 -0.08198722
000230 7c ad 0f be eb 56 bb bd b0 1a bc bd 16 0e f8 bd
       -0.14031023 -0.09147438 -0.09184778 -0.12112062
000240 eb 67 e2 3a 03 61 6c bd 00 f3 81 3a f5 b4 e0 bc
       0.0017273402 -0.057709705 0.0009914339 -0.027430037
000250 8e 95 89 bd ce 4c c8 bd ce ef b9 bd 96 d1 8d bb
       -0.067179784 -0.09780274 -0.09078942 -0.004327963
000260 0a 97 7d bc c0 5d 76 3d 0d d8 22 bc 29 79 dd bc
       -0.015477905 0.060148 -0.009939206 -0.027035313
000270 65 8e a4 bd ae 87 d5 3a 82 01 01 3d 2f e3 1c be
       -0.08034972 0.0016291046 0.03149558 -0.15321039
000280 cb d1 a9 bd da 65 90 bd 32 9f 37 3d e9 cc 9e bd
       -0.08291968 -0.07050677 0.044829555 -0.07753927
000290 1a e9 e5 bd 84 43 8b 3d c1 5f f5 3c c2 35 8b 3d
       -0.11226101 0.06799987 0.029952886 0.06797363
0002a0 c9 ac be bc b8 b2 de bd bf 97 df bd 48 a7 92 bc
       -0.02327575 -0.10873932 -0.10917615 -0.017902032
0002b0 70 9e c0 bd 80 dc f0 bd 6e af dc 3c d9 a7 d1 3c
       -0.094052196 -0.11760807 0.02693912 0.025592731
0002c0 91 bb 50 bd ea bb c8 bc e5 cc 56 bd 6f 72 d3 bd
       -0.050960127 -0.024503667 -0.052441496 -0.10324561
0002d0 75 cd ff 3c ec b5 59 bd 54 0d 53 3c 6a 03 a6 3b
       0.0312259 -0.05315201 0.012881596 0.005066325
0002e0 2c 32 11 3b 8c dc cf 3d f3 7f c4 3d f9 bf a7 3c
       0.002215515 0.10149488 0.09594717 0.020477282
0002f0 8d ca 2c 3d a2 b1 61 3d 28 9e 23 bd fe f8 1b bd
       0.042185355 0.055101044 -0.03994575 -0.038079254
000300 e3 0d 82 3d 29 34 a0 bd 7b bb 06 3e da 11 03 3e
       0.06350305 -0.07822449 0.13157456 0.12799779
000310 84 cd 40 bd 23 2b 59 3c b7 7a c8 3d 84 c1 24 bd
       -0.047070995 0.0132549135 0.09789031 -0.040223613
000320 25 42 64 3e fe b6 08 3e e0 3a 0f 3d 4a 23 8a bd
       0.22290857 0.13351056 0.034968257 -0.06745012
000330 d9 28 3d 3e a8 a9 56 3e 70 28 6e 3c 74 aa 7c 3d
       0.18472613 0.20963156 0.014536008 0.061685994
000340 35 e6 1f be 7a 48 d9 3d 85 08 e4 3d 8d a1 56 bd
       -0.15615161 0.10609527 0.111344375 -0.05240016
000350 6b e1 8b 3b ee c8 c3 3d 35 d6 ca 3d ea a4 92 3d
       0.0042688153 0.09559809 0.09904138 0.07160361
000360 3c 5f 86 be cc df b1 3d 1c ac f2 3d ac b5 36 bd
       -0.26244533 0.08685264 0.118492335 -0.04460685
000370 c1 81 89 bc 9e 64 70 bd a1 a8 36 3e 2d 90 28 bd
       -0.016785504 -0.058689706 0.17837764 -0.04115312
000380 24 a4 ed bc d8 f6 96 3d c7 68 2a be b3 72 de 3d
       -0.029008932 0.073713005 -0.16641532 0.10861721
000390 ad b6 98 3d 8b 37 1e be 21 68 a9 bd 92 08 e0 3d
       0.07456718 -0.15450875 -0.08271814 0.10939135
0003a0 10 ed db bb 16 25 99 bd cd 31 93 3d 36 33 40 be
       -0.0067116097 -0.07477777 0.07187233 -0.18769535
0003b0 84 ae 40 3d d2 52 5b 3d be 1f 08 3d 53 f3 90 3c
       0.04704143 0.05354578 0.033233397 0.017694151
0003c0 cb 8d 30 be 2c 58 30 be ea af b2 bd 0f d6 9f bc
       -0.1724159 -0.17221135 -0.08724959 -0.01951125
0003d0 ae b7 1d be a3 a5 dd 3c 7a bf 0e be 5d aa 3a bb
       -0.154021 0.02705652 -0.1394023 -0.0028482892
0003e0 fe 7e 26 3e d8 a0 4c 3e 79 a4 0b 3e c1 54 32 bd
       0.16259381 0.19983232 0.1363696 -0.04353786
0003f0 a6 ad 2f bd 84 85 02 be e4 da 3b 3d 32 67 50 3e
       -0.042890213 -0.12746245 0.045863047 0.20351866

model.6.bias f4 [64]
000000 ad 49 d7 bc 41 83 32 be 4c 59 26 be e5 78 62 3d
       -0.026280249 -0.17432882 -0.16245002 0.055291075
000010 ba a4 85 bd 11 0c 3b be fe 47 89 3d 05 d4 5c 3d
       -0.0652556 -0.18266322 0.067031845 0.053913135
000020 5d d4 11 3e 80 f6 5d be b3 72 ba bb 67 e8 36 bd
       0.14241166 -0.21676064 -0.0056899427 -0.04465523
000030 2b 1b cb 3d e3 f8 c7 3d 1c 5d 2c be 13 97 bc 3a
       0.09917291 0.09764268 -0.16832393 0.0014388285
000040 17 16 96 be f4 ce 3d bd e6 61 99 3d 96 fa 8f 3d
       -0.29313728 -0.046339944 0.07489376 0.07030217
000050 a7 0d 31 3d 9c 6e 73 bd 00 ce 1b be 1a ba 47 be
       0.04322591 -0.059431657 -0.15215302 -0.19504586
000060 ff d2 aa bd b6 6a 6e bd 79 a4 8f be 63 50 f6 bd
       -0.083410256 -0.058207236 -0.2805517 -0.12027051
000070 c0 83 7e 3d bf f5 98 bd 53 a9 0a 3c 13 d0 0b be
       0.062137365 -0.07468747 0.008463222 -0.13653593
000080 c0 9f 68 3c b0 04 58 bd 83 a0 cc 3c 3a 42 29 be
       0.014198244 -0.052738845 0.024978882 -0.1652917
000090 4a 68 ea bd a7 4e fc bd 2d 23 e3 bd 8e 17 a5 3d
       -0.11445673 -0.12319689 -0.110906936 0.08061133
0000a0 7a 24 ac 3c 47 54 9e bc 0b b9 ea bb c5 cc 89 bd
       0.021013487 -0.019327296 -0.007163172 -0.0672851
0000b0 5d d9 4e bc 59 06 15 b9 40 43 02 be 35 0a 87 3d
       -0.012625066 -0.00014212112 -0.12720966 0.06593744
0000c0 83 93 e3 bc 6b fe 18 be 07 53 b3 bd 1d 0b 42 be
       -0.0277803 -0.14940803 -0.087560706 -0.18949552
0000d0 8e 68 8a bd 05 44 0d bd 91 71 a9 bd b0 86 7e bd
       -0.067582235 -0.034488697 -0.08273614 -0.062140167
0000e0 84 48 29 be 9b 2d bd 3d 69 9f 9e bd 9a 46 aa 3d
       -0.16531569 0.09237214 -0.07745249 0.083142474
0000f0 4d b6 96 bd b7 b2 b9 3d f0 8f d4 bd bc 79 99 3a
       -0.0735899 0.0906729 -0.103790164 0.0011709253

model.8.weight f4 [64, 64]
000000 ae 2d 31 3d d4 36 65 bd 02 51 9d 3d 1d 69 bc bd
       0.043256454 -0.05596049 0.07681467 -0.09199736
000010 e5 22 1b bd 40 db 52 bd 10 cb ad bd 38 17 43 3d
       -0.037875075 -0.051478624 -0.08485997 0.047629565
000020 cc 77 81 bd 10 4b 35 bd 40 dd 7a 3b 7a 3a 36 bd
       -0.063216776 -0.04426104 0.0038278848 -0.04448936
000030 98 f7 c4 3d 92 1d c0 3d dd 00 75 3d 6a 3b f9 bd
       0.09617537 0.0938064 0.059815276 -0.121695355
000040 cb ff b0 3d 20 a2 fb 3d ec f6 66 bd 3c f7 2c 3d
       0.08642539 0.12286782 -0.056387827 0.04222797
000050 22 92 ab 3d 82 63 15 be 8d d8 0a bc b2 13 8d bd
       0.08377482 -0.1458874 -0.008474481 -0.06888522
000060 06 1f ab 3d f9 cc ef bd d8 7b 87 3c a2 49 ba bd
       0.083555266 -0.11709017 0.016538545 -0.090960756
000070 30 a5 46 3c c0 23 b1 3d c7 27 36 3d fa 74 9e 3d
       0.012124345 0.08649397 0.04447153 0.07737155
000080 0c 9c 45 bd d8 d5 15 3d 78 80 50 3d 48 5a 92 3c
       -0.04824452 0.03658089 0.050903767 0.017865315
000090 a5 42 13 be 09 24 0f bd c8 10 da bc e0 5f 1e bd
       -0.14380892 -0.034946475 -0.02661933 -0.038665652
0000a0 d3 fd 8c 3d e6 1d 92 3d 00 be 7a 3a 90 37 45 3c
       0.06884351 0.07134609 0.00095650554 0.012037173
0000b0 e8 51 f0 3d c4 75 cc bd 20 06 e3 bc aa 84 e6 bd
       0.117343724 -0.099833995 -0.027712882 -0.112557724
0000c0 b8 ef 63 bd 35 25 a4 bd 7a e1 f3 3d 59 59 5a 3d
       -0.055648535 -0.08014909 0.119082406 0.053307865
0000d0 d0 eb b4 bb f9 c0 c8 bd c4 ea 4a bd 8b e5 88 3d
       -0.005521275 -0.098024316 -0.049540296 0.06684407
0000e0 ab 20 b4 bd 16 5d b1 3d 0a 7a bd bd 88 ef 4a bd
       -0.087952934 0.08660333 -0.09251793 -0.04954484
0000f0 b4 bb f9 3d a2 16 ee 3d 2c 63 c1 bd 6e fa ba 3d
       0.12194005 0.116254106 -0.09442744 0.09129797
000100 27 62 da bd 1e 3f c8 3b 29 85 c2 ba 8e 50 ea bd
       -0.10663252 0.00611104 -0.001484071 -0.11441146
000110 7d cc 07 bd 5a d7 6d 3e 2b 27 fe 3d 0a 02 ed 3d
       -0.033154 0.23226681 0.124098144 0.115726545
000120 7e 27 08 be 6b e6 a7 3e 1c c1 7f 3d 01 10 1e 3e
       -0.13296315 0.32792982 0.062440023 0.15435793
000130 26 02 7c 3d bd ba 45 3d 65 cb 1a 3d cd 6c 8e 3d
       0.061525486 0.04827379 0.03779163 0.06954346
000140 27 02 8a 3e 35 d2 08 be 3f 6b 7b bd 9a e4 0b bd
       0.26954767 -0.13361438 -0.061381575 -0.03415356
000150 48 0b ae bc d7 3d c0 3d 8c 7b 62 bd b6 80 07 3c
       -0.021245614 0.09386795 -0.055293605 0.008270433
000160 9d 28 af bd b8 17 c6 3d 48 75 dc 3d a8 5d e0 bd
       -0.08552668 0.09672493 0.10764557 -0.109553635
000170 8b 76 bd bd 76 03 02 bd 91 f4 85 bd 71 5a 9d bd
       -0.09251126 -0.03174158 -0.06540788 -0.07683266
000180 ee a8 f0 bc b2 ed 89 bd 47 97 45 bd fd 18 ff bd
       -0.029377427 -0.0673479 -0.048239972 -0.12455938
000190 4c 43 df 3d e2 e1 4b bd 82 6a 00 bd d0 0c dc 3c
       0.10901508 -0.049775966 -0.031351574 0.026861578
0001a0 b1 43 47 be 1d b2 e5 3d 71 0c 7a 3d 12 6d d3 bd
       -0.19459416 0.11215613 0.06104702 -0.10323538
0001b0 ff ae 90 be b9 1b e4 3c d2 cf cf bd eb 7a 8d 3c
       -0.2825851 0.02784525 -0.101470605 0.017270526
0001c0 a9 39 30 3d 42 bd f2 3d b7 4f b4 bc 33 06 5c 3e
       0.04302374 0.11852504 -0.022010667 0.2148674
0001d0 1a 19 9b 3d a2 e6 a9 3d 79 24 8b bd db a7 49 3d
       0.07573147 0.08295943 -0.06794066 0.049232345
0001e0 82 53 19 3e 1e 1c 9d bd fc 76 57 3c 16 4f d7 bd
       0.14973262 -0.076713786 0.013150927 -0.10513131
0001f0 a4 25 81 3d 5c 1c 2c bd b9 42 c6 3d cf 94 c7 bd
       0.063060075 -0.042019233 0.09680695 -0.0974518
000200 a7 9d ab 3d 3d 03 c8 bd 50 f8 d8 3c b6 b4 5e 3d
       0.08379679 -0.09766243 0.026485592 0.054371558
000210 00 f4 0f 3e 43 80 54 3e 2b 43 fb bc 13 90 0e 3d
       0.14057922 0.20752053 -0.030671677 0.03480537
000220 ad 2a 00 3d 30 90 81 3d b2 b9 34 3d 85 a3 ad 3d
       0.0312907 0.0632633 0.044122405 0.084784545
000230 a4 a2 82 bd 57 e8 c9 bb eb d7 c1 bd 1c 07 7c 3c
       -0.063786775 -0.0061617303 -0.09465011 0.015382554
000240 6a 00 c2 3d af 47 2f bd c9 2a 1d bd 0f 86 d9 bc
       0.09472735 -0.042792972 -0.03837088 -0.026553182
000250 16 98 30 3b 1c 1a 71 bd 2a 94 b1 bc ac 4f 94 3d
       0.002694612 -0.05886279 -0.021677095 0.07241759
000260 5e 86 83 bd 7f 8c 1a 3d b6 7a bb 3d 48 4c 0c be
       -0.06422113 0.037731644 0.09154265 -0.13700974
000270 7e 63 24 3e e8 79 dd 3d c8 71 db bd 06 f7 03 bd
       0.16053578 0.108142674 -0.107150614 -0.032218
000280 cd 9b 30 3d 71 16 33 be 9f ae 01 be f3 4a 96 bd
       0.043117333 -0.1748903 -0.12664269 -0.07338514
000290 23 50 9d 3d 3c 34 45 3d 8d 88 b9 bd 65 30 10 3d
       0.076813005 0.048145518 -0.09059248 0.035202403
0002a0 0d 13 23 3d a5 07 e0 3c e2 b8 5a bd 3e 02 ff 3d
       0.03981309 0.027347395 -0.053398974 0.124515995
0002b0 e5 3f 92 3d df e7 2a 3c a5 48 a6 bd 90 75 97 3d
       0.07141093 0.010431259 -0.081193246 0.0739547
0002c0 fd b8 c4 bd 87 b5 2b bc fd c6 6d 3d fe 56 8f bd
       -0.09605596 -0.010480291 0.0580511 -0.06999014
0002d0 94 6a a9 3c 10 fd f3 bd 66 59 6c bd e2 fc 59 bb
       0.020680703 -0.11913502 -0.057702444 -0.0033262302
0002e0 66 86 55 bd 3d 18 62 bc 52 12 fb bc 7a c6 ff 3d
       -0.052130125 -0.013799724 -0.030648384 0.12489028
0002f0 88 ec 79 3d 3d a5 ec bd 38 18 57 bc b6 7a 03 bd
       0.06101659 -0.11554954 -0.013128333 -0.03209945
000300 b0 30 fb 3c 0a 70 d0 bd f4 20 67 bd 61 7f ee 3d
       0.030662864 -0.1017762 -0.05642791 0.11645389
000310 45 45 10 be fc a0 9b 3d 14 39 1a 3d 0b dd 4c 3d
       -0.14088924 0.07599065 0.03765209 0.05001549
000320 50 79 ed bd 27 31 d2 bd 04 8d e5 bd 89 7f 18 3d
       -0.11595404 -0.10263281 -0.11208537 0.037231002
000330 49 04 92 3c 4b bc 9a bd 30 d7 e5 3d b1 d6 c5 3d
       0.017824309 -0.07555445 0.112226844 0.0966009
000340 3b 0e f4 bd f3 ec 55 3d 2a bf 7a 3d 21 72 65 3d
       -0.11916777 0.052227926 0.061217465 0.056017045
000350 bd 14 8e bc 40 f1 2e 3b a1 d5 99 bc 37 b0 24 3d
       -0.017343873 0.002669409 -0.018778624 0.040207114
000360 2e 80 98 bd 99 6c 91 bd d2 af 69 bd 52 48 d0 bd
       -0.07446323 -0.071007915 -0.05705244 -0.10170044
000370 43 d4 79 3b 4a 54 bf 3c d0 b2 29 3d 30 a9 52 bc
       0.0038120903 0.023355622 0.041430295 -0.01285772
000380 7c 3f 83 bd a1 83 dd 3d 23 ec 12 bb c8 eb 5f 3c
       -0.06408593 0.10816122 -0.002241858 0.0136670545
000390 fd c9 40 3d 66 61 10 3d e1 e4 48 bc f5 77 63 bd
       0.04706763 0.035249136 -0.0122616 -0.05553432
0003a0 6e 24 dc bd 1b 43 f7 3d 0b e4 3d 3d 88 9a b4 bc
       -0.10749136 0.12073346 0.046360057 -0.022046342
0003b0 8d 96 67 3d 25 d0 e5 bd 40 81 96 3c 69 f3 d2 bd
       0.05654006 -0.11221341 0.018372178 -0.10300333
0003c0 20 b8 6d 3c 89 9e cf 3d ad 67 47 bd 99 b4 fa 3c
       0.014509231 0.1013766 -0.048682857 0.030603694
0003d0 9d 01 9f bd 98 82 6e bd e5 c8 89 ba 69 a1 a2 bc
       -0.077639796 -0.058230013 -0.0010512142 -0.019852357
0003e0 5e d0 e3 bd 79 e6 fb 3c df 89 ce 3d 9e c3 fa 3d
       -0.11123727 0.030749546 0.100848906 0.12244342
0003f0 00 a6 65 bb b5 79 a3 bd 4c 57 92 bd 60 37 ad bb
       -0.003504157 -0.07982198 -0.07145557 -0.005286142

model.8.bias f4 [64]
000000 86 bf e8 bd 7c 84 68 be fb e9 f8 bd f0 d4 af bd
       -0.11364655 -0.22706789 -0.12154003 -0.085855365
000010 95 a6 b2 3c cb d2 86 3d 02 b3 2f be a6 16 b3 3a
       0.021807948 0.06583174 -0.1715813 0.0013663366
000020 12 f8 4d 3c 77 4c 32 3e ba 1f ae bd 00 94 a6 be
       0.012571352 0.17411982 -0.08502145 -0.3253479
000030 dd 6c 9d bd de 76 8f bd 9a a8 00 be 29 75 8c bd
       -0.0768678 -0.07005094 -0.12564316 -0.06858284
000040 fb 81 08 be 0f d0 8c bc a9 81 01 be 34 b8 31 3d
       -0.13330834 -0.017189054 -0.12647118 0.04338856
000050 ed cb b2 bd dd 87 1e be 3a a6 c1 be dc 47 06 3d
       -0.08730302 -0.15481515 -0.37822133 0.032783374
000060 e3 af ff 3b 7b 80 4d 3c 26 06 af 3c 19 20 b4 bc
       0.0078029498 0.012542839 0.021365236 -0.021987962
000070 00 ad b3 bd 39 07 93 bd 97 1a db bd 8a 6d 0e bd
       -0.087732315 -0.07179112 -0.10698431 -0.034772433
000080 4f 6a 7d bc 82 e6 da 3d 6a 80 a3 bc 41 d1 7a be
       -0.0154672405 0.10688497 -0.019958694 -0.24493887
000090 43 64 4c bd 69 9b a6 be 9d 83 f4 bd 9f fe e6 bd
       -0.049900305 -0.32540444 -0.11939166 -0.11279034
0000a0 f1 5a b7 bd 33 82 91 bd cf 33 0c be f0 b0 74 3c
       -0.089528926 -0.07104912 -0.13691638 0.014934763
0000b0 bc f7 97 bb c8 b2 1a be 45 0c 19 be 46 b8 51 3e
       -0.0046376865 -0.15107262 -0.14946087 0.20480451
0000c0 57 56 8b bd a4 4e 89 bd 9e 91 1d be 7c 80 30 bd
       -0.068035774 -0.06704453 -0.1538758 -0.043091282
0000d0 c0 70 0f 3e 29 f3 ea 3b 13 aa 6a be 01 00 63 be
       0.14007854 0.0071701 -0.2291644 -0.2216797
0000e0 41 e4 86 be cd 39 86 bd 26 2d 0b be 33 15 25 be
       -0.2634602 -0.065539934 -0.13591442 -0.16121368
0000f0 8c 06 fc 3d f9 82 59 bc 78 9d 4e 3d bf 63 a8 bd
       0.12305936 -0.013275855 0.050443143 -0.0822215
