Assets/MLModel/mlp_new.onnx (onnx, 279955 bytes, 20 tensors)

model.0.weight f4 [64, 390]
-0.025602788 -0.016740419 -0.035902202 0.027608773 0.024103653 -0.013862676 0.01923372 0.033426937
-0.026740974 0.03939561 -0.02106746 -0.031126363 -0.05134772 -0.0036578996 -0.007934008 0.016559077
-0.03646062 -0.029026499 -0.009158752 0.0430312 -0.04171832 -0.04841948 0.019024432 0.006783134
0.032641385 -0.04179975 -0.039064135 -0.049256686 0.045912944 -0.051035002 0.019028505 -0.009685193
0.019279297 -0.019604879 -0.030138567 -0.026792822 0.016917074 -0.03166547 0.045487605 -0.019218836
-0.016490018 0.0072044856 0.03281206 0.034547042 -0.022801941 0.011829851 -0.030973338 -0.011279403
-0.003389474 0.046703 -0.026203431 -0.0100014815 0.022327531 0.039436404 -0.03917874 -0.043980494
-0.04898631 0.021649098 0.041049056 -0.05076643 -0.045374244 0.027615365 -0.018092532 0.0030167375
-0.03195169 -0.05025701 0.039886896 -0.050126042 -0.0035026013 -0.03232035 0.00855399 0.033117
0.009857444 -0.013652114 -0.05288765 -0.017469838 -0.017589422 0.009978366 0.008660983 0.024910368
-0.034156248 -0.0032936987 -0.026197 -0.04405733 0.035411227 0.0062354994 0.020049984 -0.003994901
0.02651428 0.03566398 -0.045397248 -0.0016166029 0.03884378 0.048678838 -0.0011105639 0.007624055
-0.0007397635 -0.051073693 0.02237 0.041972727 -0.028761262 -0.045326218 -0.027975801 -0.036086846
-0.0077697006 0.027022885 0.042310685 0.020917643 -0.029880071 0.031577952 -0.037594546 0.040264387
0.035434645 0.008643044 -0.009974119 0.026208295 -0.028570274 0.013501049 -0.00598861 -0.027790185
0.049020465 0.03356696 -0.038855683 -0.0119009195 0.025194732 -0.01210194 -0.039126404 -0.0482249
0.027192507 -0.031075614 0.015929144 0.030942343 -0.04366914 0.032598276 -0.00564098 0.014744525
0.030118749 -0.005425804 0.018506525 0.044219878 -0.04167593 0.041978184 0.023001226 -0.008198685
0.012173347 0.005080377 0.036406938 0.0016552806 0.024046086 -0.04121079 0.034748204 -0.031354036
-0.00056943914 -0.03456775 0.027840035 -0.038527545 -0.024893105 0.034923412 0.03423096 0.039229058
-0.02601703 -0.014417236 0.04215363 0.010243247 -0.02246199 0.026811467 0.020574223 0.0069109383
-0.017124617 0.039392892 -8.8901135e-05 0.041805748 0.017474873 -0.045918617 -0.014380881 0.03882369
0.015810011 -0.007004337 0.012239683 -0.03294086 0.020973198 -0.040119138 0.02711701 0.006702226
-0.033752117 0.003904341 0.021415535 -0.013287568 0.0041108234 -0.00019047852 -0.04719662 -0.042712368
0.029710004 -0.038047165 -0.038106825 -0.0027874003 -0.019073917 0.009909381 0.04703243 -0.053000707
0.007928051 -0.023457728 -0.024429265 0.03793105 0.048534803 0.01780735 -0.04767635 -0.04009817
0.020102933 0.0036288176 0.0061186748 0.0277989 -0.013273548 0.013840863 0.03912238 0.038722787
0.020408133 0.044082772 -0.02691561 -0.015360681 -0.013266893 -0.03464128 0.046488084 -0.020735849
0.018805396 0.039492358 0.003913192 -0.05147796 0.016455932 -0.007318854 -0.0060933856 0.015119859
-0.019927463 -0.04128467 -0.024532806 -0.011693659 -0.02580758 0.043775536 -0.033920217 0.023487536
0.031934 -0.0095412955 -0.028446846 -0.00029894288 -0.005909835 0.00089370937 0.04964847 -0.01243248
0.012787114 0.029779982 0.0048108934 0.04325423 -0.0315329 -0.027333893 0.009326134 0.026956825
00000000: f0bc d1bc 3423 89bc 300e 13bd cb2b e23c
00000010: 0675 c53c 4720 63bc 0990 9d3c afea 083d
00000020: e30f dbbc 4b5d 213d aa95 acbc b7fc febc
00000030: fd51 52bd 5fb9 6fbb a4fd 01bc e7a6 873c
00000040: bb57 15bd fbc8 edbc 970e 16bc 7c41 303d
00000050: d4e0 2abd 8153 46bd 20d9 9b3c 0d45 de3b
00000060: f9b2 053d 3736 2bbd b701 20bd 61c1 49bd
00000070: 360f 3c3d 140a 51bd abe1 9b3c a5ae 1ebc
00000080: 9eef 9d3c 699a a0bc 28e5 f6bc 9f7c dbbc
00000090: ad95 8a3c a7b3 01bd 3651 3a3d d270 9dbc
000000a0: 1316 87bc 9b13 ec3b f065 063d 3381 0d3d
000000b0: 23cb babc fed1 413c ccbb fdbc 3fcd 38bc
000000c0: f021 5ebb a54b 3f3d 94a8 d6bc 41dd 23bc
000000d0: 3ae8 b63c 1188 213d e379 20bd e424 34bd
000000e0: dea5 48bd 7359 b13c 0e23 283d 76f0 4fbd
000000f0: 58da 39bd 9e39 e23c ca36 94bc 75b4 453b
00000100: c6df 02bd 4bda 4dbd 7160 233d f750 4dbd
00000110: e68b 65bb 5862 04bd 0926 0c3c b1a5 073d
00000120: 1e81 213c 1ead 5fbc b8a0 58bd e81c 8fbc
00000130: b117 90bc 4d7c 233c cce6 0d3c d410 cc3c
00000140: 6ce7 0bbd 18db 57bb 179b d6bc 7575 34bd
00000150: 5d0b 113d 2953 cc3b dd3f a43c a9e7 82bb
00000160: 7a34 d93c 6514 123d 77f2 39bd 31e4 d3ba
00000170: a81a 1f3d 7663 473d 5790 91ba 35d3 f93b
00000180: b0ec 41ba a632 51bd 4a41 b73c 98eb 2b3d
00000190: bd9c ebbc fca7 39bd 822d e5bc cdcf 13bd
000001a0: f998 febb 195f dd3c f84d 2d3d 7a5b ab3c
000001b0: 0dc7 f4bc e257 013d bdfc 19bd 45ec 243d
000001c0: eb23 113d 8e9b 0d3c 7d6a 23bc c7b2 d63c
000001d0: 350c eabc 8133 5d3c 1a3c c4bb 3ea8 e3bc
000001e0: afc9 483d 827d 093d 2327 1fbd 13fc 42bc
000001f0: 2f65 ce3c 3747 46bc 0243 20bd 7987 45bd
00000200: d2c2 de3c 4992 febc d67d 823c cc7a fd3c
00000210: 6ade 32bd c585 053d f8d7 b8bb 0593 713c
00000220: 98bb f63c f1ca b1bb ff9a 973c e71f 353d
00000230: 61b4 2abd 51f1 2b3d 116d bc3c c753 06bc
00000240: b872 473c 4b79 a63b 711f 153d 00f6 d83a
00000250: 4cfc c43c a5cc 28bd 2254 0e3d 176d 00bd
00000260: 6a46 15ba ea96 0dbd c910 e43c 0fcf 1dbd
00000270: a0ec cbbc da0b 0f3d c335 0c3d a6ae 203d
00000280: ab21 d5bc 4536 6cbc 49a9 2c3d 4bd3 273c
00000290: 3502 b8bc b9a3 db3c 468b a83c 2775 e23b
000002a0: ed48 8cbc 715a 213d 6f70 bab8 813c 2b3d
000002b0: 7727 8f3c 2915 3cbd c99d 6bbc 9705 1f3d
000002c0: ff83 813c a384 e5bb f488 483c ffec 06bd
000002d0: fccf ab3c f753 24bd 7e24 de3c 599e db3b
000002e0: a93f 0abd f9df 7f3b a26f af3c 1ab4 59bc
000002f0: 16b4 863b 30bb 47b9 3e51 41bd 2af3 2ebd
00000300: 6562 f33c 58d7 1bbd e715 1cbd d1ac 36bb
00000310: e740 9cbc f55a 223c 14a5 403d 4517 59bd
00000320: a8e4 013c 6c2a c0bc e21f c8bc 975d 1b3d
00000330: 6ecc 463d b8e0 913c 4748 43bd fb3d 24bd
00000340: e8ae a43c 75d1 6d3b 2a7f c83b 85ba e33c
00000350: 4c79 59bc c9c4 623c ca3e 203d c99b 1e3d
00000360: f52e a73c 2390 343d 207e dcbc 5eab 7bbc
00000370: 625d 59bc 04e4 0dbd 4a6a 3e3d 3ade a9bc
00000380: c60d 9a3c bdc2 213d 3c3a 803b 8eda 52bd
00000390: 97ce 863c ffd2 efbb 06ab c7bb 49b9 773c
000003a0: eb3e a3bc 1d1a 29bd 06f9 c8bc c396 3fbc
000003b0: 6b6a d3bc fa4d 333d edef 0abd ef68 c03c
000003c0: 3acd 023d 1853 1cbc 5c09 e9bc 6fbb 9cb9
000003d0: 4aa7 c1bb d247 6a3a 325c 4b3d 9ab1 4bbc
000003e0: 0b81 513c 26f5 f33c b3a4 9d3b 592b 313d
000003f0: a428 01bd 54eb dfbc a4cc 183c 8fd4 dc3c

model.0.bias f4 [64]
-0.026625374 0.040402036 -0.061009344 -0.03839985 0.03093189 -0.04560524 0.032554496 -0.021603156
-0.03538051 -0.04459142 0.0010762915 -0.048157435 0.07786915 0.00710694 -0.0052100266 0.11069035
-0.016023356 0.049300756 0.03793364 0.0036364507 -0.086688705 0.14508663 0.015008806 -0.0009458229
-0.115261905 0.0618115 0.067108184 -0.11319688 -0.01274053 0.054824337 0.041726515 -0.05588406
0.058817044 -0.05651908 -0.03470085 0.012339729 -0.02181599 -0.00505147 -0.0064262208 -0.07192421
-0.03484401 -0.043423824 0.0024529584 -0.029562132 -0.07396396 0.026655441 0.0031685652 0.007543317
-0.051464837 0.038343273 0.008533372 -0.003785123 0.0063376743 -0.06890897 -0.011419625 -0.09725768
-0.081023484 -0.039412115 0.032343354 0.0029783107 0.038380086 0.04992137 0.02214005 -0.018398616
00000000: 751d dabc 9b7c 253d efe4 79bd 2949 1dbd
00000010: e064 fd3c 8fcc 3abd dd57 053d 1af9 b0bc
00000020: 27eb 10bd 7ea5 36bd 5a12 8d3a bb40 45bd
00000030: dc79 9f3d 55e1 e83b dfb8 aabb 9fb1 e23d
00000040: 6a43 83bc 97ef 493d 4e60 1b3d 8551 6e3b
00000050: d989 b1bd 9791 143e 7fe7 753c 1af1 77ba
00000060: 6f0e ecbd 0e2e 7d3d 0470 893d c4d3 e7bd
00000070: a8bd 50bc 7c8f 603d 6ce9 2a3d afe6 64bd
00000080: 24ea 703d 8d80 67bd 7a22 0ebd 932c 4a3c
00000090: 72b7 b2bc cd86 a5bb 0c93 d2bb 004d 93bd
000000a0: 98b8 0ebd 2edd 31bd d0c1 203b 492c f2bc
000000b0: 6b7a 97bd 835c da3c b4a7 4f3b ee2d f73b
000000c0: cbcc 52bd d60d 1d3d 8ecf 0b3c d30f 78bb
000000d0: 44ac cf3b 2520 8dbd 6119 3bbc 092f c7bd
000000e0: a4ef a5bd 996e 21bd 777a 043d c32f 433b
000000f0: 7034 1d3d 5a7a 4c3d 0d5f b53c b2b8 96bc

model.2.weight f4 [64, 64]
0.0988695 -0.021269143 -0.1413145 -0.039141342 -0.053985476 0.110638335 -0.09054514 0.09534071
0.13124998 -0.008318853 -0.071715996 0.108357936 -0.23227881 -0.03230609 0.12945153 -0.1522391
-0.1026167 0.01284873 -0.09029687 0.09907287 -0.11240066 0.114942126 0.050037984 0.17956842
-0.25471145 -0.21185939 -0.14929368 0.07055878 0.11577897 0.13203925 -0.0119137615 -0.02171802
0.0279902 0.09803876 0.030435309 0.047681015 0.09374353 0.008714989 0.22251695 0.16938092
-0.0018638968 -0.08541855 -0.0044159456 -0.044523686 0.06492944 -0.0018057823 0.05126048 -0.10730408
0.09016003 0.031802386 0.013875902 -0.10472615 0.092478454 0.10250687 0.0065148026 0.14302495
-0.104384586 -0.0083230585 -0.14409812 0.13017717 0.036964417 0.11402268 0.34752947 0.1565118
-0.11066614 -0.058051497 0.07505173 -0.025031343 0.019766686 0.074243724 0.04541463 -0.07580342
-0.040254045 0.01703294 -0.10509964 0.10161431 -0.07695804 -0.0024598092 -0.011521949 0.052854635
-0.053430885 -0.12567598 0.09813462 0.0915346 -0.12387476 -0.004850138 0.035890006 0.09461415
0.06559181 -0.18659861 0.07685774 0.14124872 -0.028223112 -0.07326898 -0.039569914 -0.07775113
0.06466805 -0.08562483 -0.07028934 0.037930127 0.021550054 -0.031802792 -0.06787485 0.063877456
0.008179069 -0.0027253716 0.087779544 -0.035630092 0.01953648 0.07453011 -0.027158603 0.0610489
-0.08046034 0.08264462 0.118193194 0.06714158 0.022151887 -0.20028564 0.09756679 0.10261906
-0.11551727 0.10376894 -0.03665054 -0.013345331 -0.11470523 0.11602264 0.039246462 0.19268692
-0.021541916 -0.090409055 -0.11855991 -0.1173841 -0.20511223 0.11304429 -0.14836736 -0.1563174
0.17563613 0.030634826 0.11545446 0.016658649 -0.26019844 0.007234084 0.11309265 -0.18088816
-0.10788751 -0.14344192 -0.08843362 0.06149985 -0.045441445 0.16141361 0.06033379 -0.017720137
-0.158911 -0.22339539 -0.3346365 0.2484933 -0.10307172 -0.04075195 -0.10612835 -0.09245207
0.13999481 0.05282441 -0.08491715 0.082628794 0.016758353 0.030831128 0.25407213 0.132479
0.06553306 0.1171877 0.07495025 0.034001127 0.16022228 -0.101084396 -0.09470128 0.11898767
-0.08771086 -0.021380395 0.067836374 -0.0663484 0.11258008 0.089246124 0.07301123 0.035068896
-0.20093185 -0.12078893 -0.0051807007 0.06012556 -0.043236185 0.004149891 0.30762532 0.14595613
-0.030536845 -0.05530104 0.014109081 -0.079544656 0.14427571 -0.040019803 -0.05439092 0.08877799
-0.16644712 0.22003338 0.09261904 -0.11158173 -0.0007427229 -0.0054580383 -0.046393227 0.0009022341
0.062563494 -0.006595642 0.054023344 0.1096612 -0.08386253 0.07427307 0.013404083 -0.03433478
-0.106174685 -0.085621774 -0.054268222 0.1587085 -0.10243542 -0.038540453 -0.0037054718 -0.1382492
0.20001708 -0.07898596 -0.028064542 -0.17087434 -0.06863567 -0.10040881 -0.06095002 0.14807473
0.037770793 0.089686744 0.13579053 0.02515249 -0.10135684 0.036719058 0.039382283 0.11627831
0.123383 0.11867255 -0.0856144 0.06951019 -0.0271877 -0.13844864 -0.08183937 0.12646963
-0.17372456 -0.12150008 -0.1308495 0.098881125 -0.14069255 0.14710705 0.04882107 0.007868073
00000000: 187c ca3d a03c aebc c0b4 10be ac52 20bd
00000010: e01f 5dbd 5a96 e23d bb6f b9bd fd41 c33d
00000020: 6566 063e cc4b 08bc d6df 92bd c4ea dd3d
00000030: 7fda 6dbe 6453 04bd f18e 043e 91e4 1bbe
00000040: b428 d2bd 7b83 523c 91ed b8bd b8e6 ca3d
00000050: 5132 e6bd c766 eb3d a1f4 4c3d c9e0 373e
00000060: 8a69 82be abf1 58be 71e0 18be 1f81 903d
00000070: 861d ed3d 4c35 073e f031 43bc fde9 b1bc
00000080: b44b e53c 8cc8 c83d 7853 f93c 2b4d 433d
00000090: 9cfc bf3d 50c9 0e3c 7cdb 633e 3172 2d3e
000000a0: 004e f4ba ecef aebd a3b3 90bb 785e 36bd
000000b0: baf9 843d 00b0 ecba 82f6 513d 3ec2 dbbd
000000c0: d2a5 b83d 3843 023d c057 633c aa7a d6bd
000000d0: 5865 bd3d 1fef d13d 207a d53b 2275 123e
000000e0: 96c7 d5bd 705d 08bc 758e 13be 2a4d 053e
000000f0: 0068 173d b984 e93d 62ef b13e a144 203e
00000100: eea4 e2bd 68c7 6dbd b9b4 993d 880e cdbc
00000110: bfed a13c 180d 983d b104 3a3d d33e 9bbd
00000120: 6de1 24bd aa88 8b3c 7b3e d7bd 2a1b d03d
00000130: 2d9c 9dbd c034 21bb 8fc6 3cbc 1a7e 583d
00000140: 58da 5abd 34b1 00be cefa c83d 7e76 bb3d
00000150: 0db2 fdbd e8ed 9ebb 6601 133d 10c5 c13d
00000160: 0055 863d b513 3fbe 9767 9d3d 81a3 103e
00000170: 2834 e7bc 0c0e 96bd 1014 22bd fc3b 9fbd
00000180: af70 843d 125c afbd dcf3 8fbd 9f5c 1b3d
00000190: bd89 b03c a543 02bd f801 8bbd 2fd2 823d
000001a0: 8001 063c 269c 32bb c3c5 b33d dcf0 11bd
000001b0: f80a a03c 3ea3 983d b87b debc 690e 7a3d
000001c0: 64c8 a4bd 9541 a93d 460f f23d 8681 893d
000001d0: e077 b53c ae17 4dbe 19d1 c73d f129 d23d
000001e0: 5294 ecbd cf84 d43d e01e 16bd 60a6 5abc
000001f0: 93ea eabd 479d ed3d e6c0 203d b84f 453e
00000200: ac78 b0bc 6228 b9bd 8acf f2bd 1367 f0bd
00000210: f108 52be c483 e73d 9ded 17be ab11 20be
00000220: f5d9 333e e3f5 fa3c 6373 ec3d b877 883c
00000230: bb38 85be e50b ed3b 1f9d e73d bf3a 39be
00000240: 20f4 dcbd 70e2 12be b01c b5bd 44e7 7b3d
00000250: cf20 3abd 9c49 253e 9020 773d d229 91bc
00000260: 91b9 22be c3c1 64be 7a55 abbe 0775 7e3e
00000270: 4417 d3bd 84eb 26bd d259 d9bd 8357 bdbd
00000280: cd5a 0f3e 695e 583d 0be9 adbd 4939 a93d
00000290: d048 893c 9091 fc3c be15 823e 93a8 073e
000002a0: 3236 863d 1b00 f03d 847f 993d c444 0b3d
000002b0: 4f11 243e 5605 cfbd bff2 c1bd cfaf f33d
000002c0: c0a1 b3bd f025 afbc cced 8a3d ace1 87bd
000002d0: 6390 e63d acc6 b63d e986 953d 67a4 0f3d
000002e0: 14c1 4dbe 3060 f7bd dec2 a9bb 3846 763d
000002f0: 6d18 31bd cffb 873b 1181 9d3e 8675 153e
00000300: 6828 fabc 5883 62bd c629 673c 4fe8 a2bd
00000310: 03bd 133e ceeb 23bd 03c9 5ebd 3cd1 b53d
00000320: 1d71 2abe 6e50 613e 0daf bd3d f684 e4bd
00000330: 4ab3 42ba 58d9 b2bb d306 3ebd e883 6c3a
00000340: 4a21 803d 4120 d8bb 9547 5d3d 0d96 e03d
00000350: 1ec0 abbd 7b1c 983d cd9c 5b3c a0a2 0cbd
00000360: 1d72 d9bd 785a afbd 5b48 5ebd 7b84 223e
00000370: a9c9 d1bd 98dc 1dbd 80d7 72bb 3391 0dbe
00000380: 47d1 4c3e 64c3 a1bd 9ce7 e5bc aff9 2ebe
00000390: dc90 8cbd 22a3 cdbd baa6 79bd e7a0 173e
000003a0: 8cb5 1a3d afad b73d ac0c 0b3e 980c ce3c
000003b0: 2d94 cfbd b966 163d 514f 213d 5323 ee3d
000003c0: 3ab0 fc3d 980a f33d 9a56 afbd 5c5b 8e3d
000003d0: bdb8 debc 7bc5 0dbe 669b a7bd 4181 013e
000003e0: dae4 31be 09d5 f8bd 69fd 05be 3082 ca3d
000003f0: b511 10be 3ba3 163e 9af8 473d 17e9 003c

model.2.bias f4 [64]
-0.1647794 0.00436466 -0.229183 0.07061337 0.03348748 0.030094085 0.042562146 -0.18200535
0.031054074 -0.08089575 0.09465399 0.065131955 0.07210284 0.15542367 -0.15699804 -0.1319225
-0.035174455 0.02345015 -0.14093687 -0.03203909 -0.07600159 0.08338413 -0.08047881 0.10109768
-0.16462465 -0.12573712 -0.05296184 -0.0728509 -0.113123484 0.24513517 -0.049470082 -0.04204186
-0.11295039 0.023905478 0.070034124 -0.027148712 0.08224956 0.07036178 0.097000316 -0.1454947
0.030767389 -0.19213472 -0.11969899 0.09123115 0.08548443 -0.10379694 0.13075724 -0.10584655
-0.19501577 0.059452966 0.04018523 -0.097745106 0.014583087 0.16455393 -0.043018717 -0.09281099
-0.022431737 -0.11342653 -0.2144989 0.17376508 -0.09288361 -0.038399644 -0.045553505 0.08833456
00000000: eebb 28be 6c05 8f3b f3ae 6abe be9d 903d
00000010: 2b2a 093d df87 f63c a555 2e3d 9c5f 3abe
00000020: 1d65 fe3c acac a5bd f3d9 c13d e763 853d
00000030: a7aa 933d 6227 1f3e 18c4 20be b116 07be
00000040: 1713 10bd 871a c03c c151 10be 6c3b 03bd
00000050: b9a6 9bbd 4cc5 aa3d 13d2 a4bd 4d0c cf3d
00000060: 5d93 28be 3bc1 00be 84ee 58bd da32 95bd
00000070: 49ad e7bd b704 7b3e 24a1 4abd 1634 2cbd
00000080: 8952 e7bd 6cd5 c33c 0d6e 8f3d fa66 debc
00000090: 7572 a83d d619 903d 1aa8 c63d 90fc 14be
000000a0: e40b fc3c f7be 44be be24 f5bd 66d7 ba3d
000000b0: 7612 af3d 7d93 d4bd 3ae5 053e 13c6 d8bd
000000c0: 37b2 47be f484 733d 4599 243d 962e c8bd
000000d0: e6ed 6e3c d380 283e 6534 30bd b013 bebd
000000e0: c3c2 b7bc 2b4c e8bd 9aa5 5bbe 79ef 313e
000000f0: c339 bebd f248 1dbd 5096 3abd c0e8 b43d

model.4.weight f4 [64, 64]
0.38279918 0.05335445 0.48123765 -0.030178798 -0.18943794 -0.05090515 0.030255988 0.03943863
-0.20376657 -0.050648097 -0.07069487 -0.10494509 -0.13493809 -0.085940346 -0.119620934 -0.054764207
0.18864426 -0.047335755 -0.007362018 -0.11107561 0.19452114 -0.021009643 -0.0132088065 -0.070399046
-0.07538757 0.23040159 -0.050933454 0.09953143 0.22545817 -0.09003356 0.11215951 0.07206872
-0.062418308 -0.034295145 -0.09217739 -0.16902599 -0.036630694 0.04196371 0.058485772 -0.15093254
0.05579683 0.21507238 0.0019626447 -0.10338811 -0.117899835 -0.086518146 -0.10648618 0.083373964
-0.058998432 0.097198844 0.0029276588 0.016619245 -0.082455516 0.02845248 0.25075215 0.046361282
0.11002165 0.017862938 -0.05899057 -0.12054872 -0.026836053 -0.18377861 -0.05504094 0.12271482
-0.037307553 0.049063116 -0.118959874 -0.07399126 0.08789269 -0.11921004 -0.0017937983 0.13145034
-0.024138357 -0.061781317 0.12059103 -0.16602539 -0.109446324 -0.023128236 -0.08563538 -0.08288941
-0.11472 -0.032260027 0.088326134 0.04868138 -0.095544815 -0.23290487 -0.058694925 0.053422976
-0.0017270134 0.017359136 -0.04843909 -0.0716039 0.13622856 -0.040656254 0.020910354 -0.24502271
0.01030498 -0.1451948 -0.083115734 0.107229896 -0.24533138 0.016507927 -0.22708736 -0.01685144
-0.22830322 0.1007401 0.11245334 -0.12746403 -0.02190168 0.16935891 -0.084162965 0.0646753
0.029518064 0.030591717 -0.10366952 -0.18062425 0.121842206 0.046770792 0.10481716 0.112979315
-0.17518505 0.1212061 0.22448713 -0.28462908 -4.062182e-05 -0.15694171 0.082076825 0.022027455
-0.191275 0.13311237 0.07202802 -0.015817085 -0.056902725 0.08414356 -0.0969188 0.04234676
0.2880063 -0.0571638 0.09975605 -0.17770661 0.119188674 0.109239094 0.0840451 0.025125762
-0.23476416 -0.027482748 -0.043199394 -0.028973462 -0.008252257 -0.25631472 -0.10480126 0.032726258
-0.09828168 0.17316796 0.056712974 0.039147858 -0.11473793 0.12300957 -0.2351499 0.006562252
-0.0074253865 -0.114208065 0.14977506 -0.12126352 -0.12158418 -0.025055015 -0.082272574 -0.22075912
-0.015562294 -0.17698868 0.03426302 -0.14154418 -0.035259597 0.071359105 0.13608366 -0.2944509
-0.0115037495 0.0050998833 0.008415848 -0.051861282 0.00053020514 0.12775177 -0.2097216 -0.0525486
0.030777352 -0.051059954 -0.0767114 0.11944363 -0.16139926 -0.045277175 0.055001196 -0.0147298565
-0.014412132 0.09791923 0.09996387 0.05521389 -0.0138422325 0.099924214 -0.17753474 0.042963006
0.017304458 -0.0968916 -0.0026553618 -0.27452415 0.0022989996 -0.07588821 0.06463395 0.04421878
0.15880814 -0.20216061 0.0028654288 -0.03053835 0.16566762 -0.30545887 -0.026365146 -0.05592188
0.1173978 -0.025923818 -0.088131435 0.13291924 0.05829969 -0.1312065 0.15327065 -0.1437254
-0.088746645 -0.06962875 -0.1208416 -0.1191126 0.1455547 -0.03780799 0.110955976 -0.050625276
0.03170863 -0.015873963 0.028968174 -0.3173266 0.10641606 0.015411117 0.083879225 -0.0034258894
0.114384346 -0.060821474 -0.021335438 0.056218065 0.078738265 -0.1373015 0.2493507 -0.03384002
0.07579074 0.06386697 -0.03216652 -0.1257603 0.27193683 -0.20908736 -0.13817081 0.15419203
00000000: 41fe c33e 328a 5a3d c864 f63e 8739 f7bc
00000010: 05fc 41be eb81 50bd 68db f73c 678a 213d
00000020: 2fa8 50be 6174 4fbd 79c8 90bd 74ed d6bd
00000030: 362d 0abe 7e01 b0bd d2fb f4bd 6f50 60bd
00000040: f62b 413e 23e3 41bd 153d f1bb 9c7b e3bd
00000050: 8d30 473e 6a1c acbc c069 58bc 602d 90bd
00000060: cc64 9abd 65ee 6b3e 999f 50bd 22d7 cb3d
00000070: 82de 663e 8463 b8bd e3b3 e53d c498 933d
00000080: 57aa 7fbd 1179 0cbd 80c7 bcbd 2615 2dbe
00000090: 110a 16bd 24e2 2b3d c78e 6f3d 0f8e 1abe
000000a0: 388b 643d ef3b 5c3e b79f 003b 25bd d3bd
000000b0: 7875 f1bd 6d30 b1bd 6d15 dabd f8bf aa3d
000000c0: 57a8 71bd 3010 c73d f7dd 3f3b 1525 883c
000000d0: 70de a8bd 2d15 e93c 9662 803e 54e5 3d3d
000000e0: 0853 e13d 4c55 923c 19a0 71bd 3fe2 f6bd
000000f0: 48d7 dbbc 7630 3cbe 9c72 61bd e851 fb3d
00000100: cecf 18bd 68f6 483d 3ca1 f3bd bb88 97bd
00000110: 1501 b43d 6524 f4bd e21d ebba eb9a 063e
00000120: cebd c5bc 680e 7dbd 6ef8 f63d 8f02 2abe
00000130: 6525 e0bd 6d77 bdbc 9a61 afbd ecc1 a9bd
00000140: 52f2 eabd 1723 04bd 55e4 b43d 2066 473d
00000150: 00ad c3bd 9d7e 6ebe 176a 70bd 0dd2 5a3d
00000160: f45c e2ba bf34 8e3c 1168 46bd 11a5 92bd
00000170: 807f 0b3e 2c87 26bd 314c ab3c 3ce7 7abe
00000180: 38d6 283c f2ad 14be 9538 aabd 599b db3d
00000190: 2638 7bbe a23b 873c 9789 68be 080c 8abc
000001a0: 52c8 69be d350 ce3d f04d e63d ee85 02be
000001b0: 276b b3bc 6c6c 2d3e a25d acbd 7c74 843d
000001c0: decf f13c 7b9b fa3c af50 d4bd 90f5 38be
000001d0: 6888 f93d bb92 3f3d 61aa d63d b361 e73d
000001e0: b663 33be e73a f83d f4df 653e e7ba 91be
000001f0: 5961 2ab8 54b5 20be e517 a83d ec72 b43c
00000200: 98dd 43be 9c4e 083e 6d83 933d d592 81bc
00000210: d512 69bd 7553 ac3d 5d7d c6bd cc73 2d3d
00000220: 9075 933e 9724 6abd e64c cc3d b9f8 35be
00000230: 3119 f43d bfb8 df3d d61f ac3d 8bd4 cd3c
00000240: 0466 70be 8023 e1bc d9f1 30bd c159 edbc
00000250: 7934 07bc af3b 83be 0ba2 d6bd f80b 063d
00000260: e847 c9bd f152 313e dd4b 683d 8159 203d
00000270: b8fb eabd 71ec fb3d 23cb 70be 2908 d73b
00000280: a850 f3bb ebe5 e9bd a25e 193e 0259 f8bd
00000290: 2001 f9bd 2d40 cdbc 867e a8bd ae0e 62be
000002a0: fef8 7ebc 853c 35be 6157 0c3d f5f0 10be
000002b0: 5e6c 10bd b924 923d 8459 0b3e 45c2 96be
000002c0: 397a 3cbc ec1c a73b a0e2 093c 7f6c 54bd
000002d0: 77fd 0a3a 5cd1 023e 42c1 56be 333d 57bd
000002e0: c920 fc3c 3e24 51bd de1a 9dbd dd9e f43d
000002f0: d945 25be 8f74 39bd ef48 613d 7f55 71bc
00000300: dd20 6cbc e189 c83d dcb9 cc3d f627 623d
00000310: 88ca 62bc 11a5 cc3d abcb 35be faf9 2f3d
00000320: 14c2 8d3c 1a6f c6bd 9405 2ebb 6e8e 8cbe
00000330: d0aa 163b 476b 9bbd ce5e 843d c01e 353d
00000340: 9a9e 223e 3103 4fbe ebc9 3b3b 902b fabc
00000350: c6a4 293e 1b65 9cbe b8fb d7bc 570e 65bd
00000360: 426e f03d 305e d4bc 417e b4bd fb1b 083e
00000370: a8cb 6e3d ff5a 06be fbf2 1c3e c02c 13be
00000380: cdc0 b5bd 8599 8ebd cd7b f7bd 4ff1 f3bd
00000390: 4b0c 153e 8ddc 1abd e33c e33d 735c 4fbd
000003a0: e9e0 013d 1d0a 82bc aa4e ed3c a278 a2be
000003b0: aaf0 d93d e97e 7c3c dfc8 ab3d e384 60bb
000003c0: 5742 ea3d f01f 79bd a8c7 aebc ea44 663d
000003d0: 8741 a13d c498 0cbe ca55 7f3e d59b 0abd
000003e0: 2d38 9b3d b0cc 823d 0ac1 03bd 4fc7 00be
000003f0: 4e3b 8b3e ff1a 56be a67c 0dbe 84e4 1d3e

model.4.bias f4 [64]
-0.054078866 0.009725593 0.11517895 -0.046192873 -0.14584628 -0.011174132 0.18461667 -0.111627124
-0.038007315 -0.02498585 -0.02691049 -0.15699928 0.03535164 -0.047523636 0.1985615 0.12289546
0.14287254 0.2180275 0.17093262 -0.09816613 -0.16157746 -0.22727016 -0.1599621 -0.17048132
0.005572263 -0.053455725 -0.13538879 -0.007595603 0.034159813 0.058860537 -0.03090495 0.212778
0.056948494 -0.058225196 -0.0049828934 0.03738024 0.16652125 -0.08377526 -0.17373046 -0.09691828
-0.04074711 -0.1752557 -0.08714151 -0.12865984 -0.07895263 -0.10218339 -0.14910358 -0.084063
-0.100246705 -0.12534292 -0.05212941 0.10097561 0.005298896 0.083496325 -0.008208245 0.01619356
0.10392844 -0.13609022 0.06989974 -0.03067373 -0.13822995 0.029312968 -0.15159507 0.041419517
00000000: cd81 5dbd 1858 1f3c f1e2 eb3d bd34 3dbd
00000010: ba58 15be b513 37bc 270c 3d3e c39c e4bd
00000020: 8fad 1bbd 20af ccbc 6373 dcbc 6bc4 20be
00000030: e2cc 103d 25a8 42bd b553 4b3e 9db0 fb3d
00000040: 2e4d 123e 9a42 5f3e f608 2f3e 530b c9bd
00000050: 9074 25be 82b9 68be 1bcd 23be a892 2ebe
00000060: 8897 b63b 64f4 5abd 5ca3 0abe 89e4 f8bb
00000070: 29eb 0b3d bf17 713d 612c fdbc 7ae2 593e
00000080: d342 693d 8b7d 6ebd 8a47 a3bb 061c 193d
00000090: 8c84 2a3e 5d92 abbd 66e6 31be 177d c6bd
000000a0: 71e6 26bd 3b76 33be 3f77 b2bd 68bf 03be
000000b0: ebb1 a1bd 8645 d1bd 9cae 18be 3929 acbd
000000c0: 254e cdbd e559 00be a685 55bd 4dcc ce3d
000000d0: 5da2 ad3b 1f00 ab3d e07b 06bc 5ba8 843c
000000e0: 6fd8 d43d 3c5b 0bbe 9827 8f3d 7947 fbbc
000000f0: 278c 0dbe c021 f03c bd3b 1bbe 83a7 293d

model.6.weight f4 [64, 64]
-0.09175844 -0.10879867 0.111004554 -0.009258812 0.078252144 0.0049019866 -0.043237068 0.02811273
0.06031693 -0.031553157 0.007411358 0.09275977 -0.082970485 0.0657908 0.095808685 0.038517006
0.004033418 0.08456372 0.21552223 -0.00050382037 -0.12747718 -0.028698176 0.032998994 -0.06647837
0.16662218 -0.09888371 0.09533292 -0.114462666 -0.040126793 0.00429136 -0.2853497 0.077736355
0.03640399 -0.01776607 0.0107347155 -0.048104696 -0.11320871 0.14750074 -0.14768709 -0.11838386
-0.13152185 0.083484836 -0.07508089 0.06427952 -0.043214124 0.08556171 0.17720534 -0.02435979
0.08896003 -0.23437287 -0.26032004 -0.095154956 0.026440943 -0.07381999 -0.061340626 0.10888678
-0.18368535 -0.009277113 0.081256226 0.03205776 0.05228094 -0.045302324 -0.05412364 0.01908616
-0.045372266 -0.19661376 -0.06228627 0.042666335 0.11666634 0.04267813 0.107797615 0.15064271
-0.01197507 0.09971133 -0.10170579 0.15647587 -0.21014631 0.03281735 0.08465494 0.10952425
-0.026948022 -0.041282725 0.0140467435 -0.14064229 -0.2019225 -0.1357683 0.08491355 -0.22047912
0.12272747 -0.27516484 0.086919874 -0.069232985 0.055673294 0.046226416 -0.017229829 0.19998948
0.03974174 -0.09000574 0.04702596 0.063916 -0.037071206 0.030857995 -0.102926835 0.005114954
-0.012398584 0.031673387 0.10711245 0.03636524 -0.09239916 -0.07736988 -0.054574706 0.18156806
0.11733108 -0.33195767 -0.26536158 -0.09832413 0.057088982 -0.08710564 -0.01146995 0.055991184
0.017088478 0.05334571 -0.022861352 0.030115992 -0.025727186 -0.05418616 -0.101568945 -0.10776768
0.05770518 -0.11946831 -0.10288042 0.20430832 -0.006388838 0.120868206 0.02698851 0.2280376
0.13136536 -0.090295255 0.05752318 -0.09087051 -0.0653922 -0.007986148 0.052471902 0.034500048
-0.057220824 0.07825129 -0.021495033 -0.021490302 -0.17759383 -0.01690037 0.03685101 0.047101714
0.064604126 -0.2101333 -0.012741253 -0.13545026 0.06043141 -0.004867777 -0.15334769 -0.0776507
0.019386657 -0.09151965 0.013721993 0.063366205 -0.18621378 0.09159114 0.048756033 0.12530343
0.04647695 -0.052562114 -0.009823116 -0.02687375 -0.11402602 0.045625746 0.07634328 -0.090490445
-0.053358193 -0.045443475 -0.054908767 -0.026804687 -0.050314557 -0.052366707 -0.07119645 0.0785545
-0.018503178 0.012226445 0.25090986 -0.08190389 -0.09499113 0.0998237 -0.04802736 0.07798776
0.17299694 -0.04954502 0.012286128 0.05284004 0.13246712 0.12304411 -0.1641389 -0.10756032
0.067572884 -0.02938453 0.015170906 -0.11666242 -0.016225267 -0.09579449 0.043721884 -0.08962255
-0.030762758 0.012607534 -0.006284626 0.04759284 0.21027671 0.19054121 0.070504986 -0.027513929
-0.19353259 -0.20150729 0.054830655 -0.054453593 0.100406595 0.03731393 -0.09210752 -0.17175168
-0.025995433 0.058654048 0.14118753 -0.034126658 -0.051360182 -0.0011169522 0.049355906 -0.1243504
0.1382245 0.04861731 -0.00043291607 -0.08416432 -0.08321686 0.07548492 0.051012598 0.004339997
-0.07539647 -0.028026417 0.17210357 -0.024013113 -0.12707788 0.013449 -0.124138795 0.008757816
0.018706355 -0.029336594 -0.095147505 0.018481294 -0.09601094 0.16129677 0.120665245 -0.03939458
00000000: d9eb bbbd d6d1 debd 5b56 e33d 46b2 17bc
00000010: a942 a03d d8a0 a03b 5a19 31bd ab4c e63c
00000020: e30e 773d e23d 01bd fada f23b d6f8 bd3d
00000030: 6eec a9bd 54bd 863d 5837 c43d 02c4 1d3d
00000040: c32a 843b be2f ad3d dcb1 5c3e d012 04ba
00000050: 6189 02be 7018 ebbc f429 073d d025 88bd
00000060: 019f 2a3e 8b83 cabd e83d c33d 676b eabd
00000070: fe5b 24bd 899e 8c3b 5b19 92be 3d34 9f3d
00000080: 5a1c 153d 268a 91bc a9e0 2f3c 6e09 45bd
00000090: f8d9 e7bd 6f0a 173e 493b 17be 3d73 f2bd
000000a0: aaad 06be 19fa aa3d 02c4 99bd fba4 833d
000000b0: 4b01 31bd fa3a af3d 5175 353e 2f8e c7bc
000000c0: ad30 b63d 71ff 6fbe ab48 85be 9ae0 c2bd
000000d0: ad9a d83c ef2e 97bd 4f40 7bbd 0800 df3d
000000e0: 0318 3cbe 08ff 17bc aa69 a63d ff4e 033d
000000f0: 8a24 563d ee8e 39bd c0b0 5dbd 945a 9c3c
00000100: 45d8 39bd 1e55 49be e31f 7fbd e5c2 2e3d
00000110: c3ee ee3d 43cf 2e3d ffc4 dc3d 1542 1a3e
00000120: 1633 44bc 7435 cc3d 204b d0bd 363b 203e
00000130: 9830 57be 7c6b 063d 925f ad3d 404e e03d
00000140: 19c2 dcbc 1318 29bd 5024 663c 8804 10be
00000150: c6c4 4ebe d806 0bbe 28e7 ad3d 47c5 61be
00000160: 8a58 fb3d 68e2 8cbe 0c03 b23d 06ca 8dbd
00000170: ae09 643d e957 3d3d 9225 8dbc 0bca 4c3e
00000180: 3cc8 223d ee54 b8bd 4b9e 403d 64e6 823d
00000190: fad7 17bd e8c9 fc3c 4ecb d2bd 589b a73b
000001a0: 6e23 4bbc f4bb 013d c65d db3d b8f3 143d
000001b0: c53b bdbd 1a74 9ebd ba89 5fbd faec 393e
000001c0: 474b f03d 5bf6 a9be 79dd 87be 295e c9bd
000001d0: 23d6 693d 7164 b2bd 75ec 3bbc 0357 653d
000001e0: 23fd 8b3c 0881 5a3d bb47 bbbc d0b5 f63c
000001f0: d2c1 d2bc 4ff2 5dbd 6103 d0bd 4db5 dcbd
00000200: 445c 6c3d cdab f4bd f8b2 d2bd 3336 513e
00000210: 7559 d1bb c089 f73d 0217 dd3c b082 693e
00000220: a484 063e b8ec b8bd 6d9d 6b3d 511a babd
00000230: 59ec 85bd 55d8 02bc c7ec 563d ec4f 0d3d
00000240: 6260 6abd 3642 a03d 5a16 b0bc 6e0c b0bc
00000250: 28db 35be a572 8abc 16f1 163d baed 403d
00000260: 2b4f 843d 2f2d 57be b0c0 50bc 79b3 0abe
00000270: ed86 773d e081 9fbb 2d07 1dbe 5507 9fbd
00000280: c4d0 9e3c a76e bbbd 36d2 603c 24c6 813d
00000290: d3ae 3ebe 2394 bb3d 68b4 473d 8b4f 003e
000002a0: 9d5e 3e3d 5f4b 57bd 22f1 20bc 5726 dcbc
000002b0: 7986 e9bd 10e2 3a3d de59 9c3d 0e53 b9bd
000002c0: 1f8e 5abd f022 3abd 04e8 60bd 8195 dbbc
000002d0: a316 4ebd 797e 56bd 72cf 91bd 2fe1 a03d
000002e0: fa93 97bc 6d51 483c 4277 803e 3abd a7bd
000002f0: b68a c2bd 5e70 cc3d 56b8 44bd 0cb8 9f3d
00000300: 1c26 313e b8ef 4abd c14b 493c cc6e 583d
00000310: 76a5 073e 8dfe fb3d 0714 28be 9648 dcbd
00000320: a763 8a3d d3b7 f0bc 648f 783c b5ec eebd
00000330: daea 84bc e72f c4bd b815 333d 078c b7bd
00000340: 2e02 fcbc d58f 4e3c 44ef cdbb b6f0 423d
00000350: c752 573e 3c1d 433e eb64 903d e464 e1bc
00000360: 682d 46be ed57 4ebe 1c96 603d bb0a 5fbd
00000370: f9a1 cd3d 7ed6 183d dea2 bcbd acdf 2fbe
00000380: 60f4 d4bc 3a3f 703d 7793 103e 65c8 0bbd
00000390: 0e5f 52bd b266 92ba 6b29 4a3d 6cab febd
000003a0: b98a 0d3e f222 473d 03f9 e2b9 585e acbd
000003b0: 9a6d aabd d697 9a3d 96f2 503d 8936 8e3b
000003c0: 7769 9abd a897 e5bc eb3b 303e 26b7 c4bc
000003d0: b420 02be 3259 5c3c 7b3c febd f17c 0f3c
000003e0: 123e 993c 4c53 f0bc b2dc c2bd 1566 973c
000003f0: 62a1 c4bd fb2a 253e 571f f73d 365c 21bd

model.6.bias f4 [64]
0.043744106 0.12430763 0.089320935 -0.1443173 -0.0033902593 -0.24365753 -0.09634197 -0.123209424
-0.17529522 0.009035212 -0.1589136 0.10159614 0.06278336 0.07979908 0.012429442 0.08298342
-0.29959673 0.14739813 0.0061915875 0.13255697 -0.0063617365 -0.05891896 -0.002196356 0.07940537
0.07562159 -0.08228409 0.032829992 0.025308084 0.08680353 0.13984093 0.10596468 -0.08098518
-0.07118153 -0.08567152 -0.17407855 -0.012511288 0.12099427 -0.13828555 0.12722875 -0.076516025
0.08344789 -0.09975067 0.20164193 0.02416588 0.013506037 -0.06441043 0.044655632 0.19614199
-0.19779646 0.10197278 -0.084021956 -0.112551935 -0.14541154 0.24245174 0.12075066 0.06148351
-0.21816406 -0.023913255 0.14377853 -0.17562671 -0.086007155 -0.13191073 -0.022014933 -0.12850986
00000000: 052d 333d 0095 fe3d e5ed b63d eac7 13be
00000010: 1d2f 5ebb 5c81 79be f04e c5bd 3955 fcbd
00000020: 9780 33be 6d08 143c 3fba 22be a311 d03d
00000030: 9094 803d b36d a33d dca4 4b3c 36f3 a93d
00000040: be64 99be 89ef 163e cde2 ca3b 04bd 073e
00000050: 1d76 d0bb 0255 71bd bdf0 0fbb 489f a23d
00000060: 7edf 9a3d 9084 a8bd be78 063d e652 cf3c
00000070: 0dc6 b13d 7632 0f3e 0304 d93d 8fdb a5bd
00000080: 9fc7 91bd 8d74 afbd a641 32be 25fc 4cbc
00000090: d8cb f73d ba9a 0dbe 4148 023e 6fb4 9cbd
000000a0: bae6 aa3d 144a ccbd 397b 4e3e 86f7 c53c
000000b0: 6d48 5d3c 9ee9 83bd d3e8 363d 72d9 483e
000000c0: 288b 4abe 1bd7 d03d b413 acbd a181 e6bd
000000d0: c3e6 14be 4545 783e 1f4c f73d 22d6 7b3d
000000e0: 6666 5fbe bbe5 c3bc ae3a 133e 7dd7 33be
000000f0: 8524 b0bd 9b13 07be a958 b4bc 1798 03be

model.8.weight f4 [64, 64]
0.04512566 0.010834416 0.1641493 0.12230012 -0.10234674 0.2609441 0.34926438 -0.024387622
-0.14239916 0.15486234 0.027784055 0.031876028 0.04203903 0.10865141 -0.034925323 -0.11440219
0.35262114 -0.052139945 0.074867345 0.15768112 0.24781334 0.06045589 0.01142512 0.13662992
0.14647596 -0.007318918 0.23140052 0.003791187 0.056828987 -0.018476637 0.017065598 -0.103236884
0.07468547 0.14822046 0.012403653 -0.0073595997 -0.16157736 0.10462881 0.20763074 0.040363733
-0.0334788 -0.001587969 0.07906501 -0.041459233 -0.017458767 0.11331019 6.6596726e-06 -0.1712336
0.1728775 0.039566923 -0.15230377 0.07530802 -0.03700591 0.113377824 -0.3428466 -0.03743636
0.26561722 0.16314301 0.18107153 -0.05881882 0.028840825 0.019585574 -0.015686821 0.02604581
-0.010224425 -0.06111344 -0.11678943 0.040856548 0.090678945 -0.071757734 -0.030001944 0.009612478
-0.04595247 -0.04946888 0.05890736 -0.10223442 -0.12041155 0.06724377 0.031303555 -0.041634593
-0.098593906 -0.03597969 -0.090780586 -0.084149346 0.0111272335 -0.107568815 -0.08066622 0.03750741
-0.012122603 -0.036145702 0.057943627 -0.1129269 -0.06205343 -0.1566349 -0.058044743 -0.04102383
0.07226767 -0.029973999 -0.108738035 -0.0795523 -0.066076756 -0.08773595 0.06769244 0.011155754
-0.15029305 0.026607588 -0.11421241 -0.06893465 0.058482036 -0.06029816 0.046436533 -0.093735814
-0.038002558 -0.15196474 -0.0737246 0.102884024 0.093507215 -0.10437406 0.0028296113 0.12314506
-0.027681842 0.044680394 0.027526483 -0.12200476 -0.10328827 -0.03258431 -0.14340381 -0.02306442
0.010166588 -0.3939021 -0.05151393 -0.20334832 -0.2597294 -0.080984704 0.061366096 -0.10347171
-0.092157334 -0.10565835 -0.07353347 -0.22769783 0.15326272 0.23196386 0.10315057 -0.049442902
0.17461552 0.09725202 0.22138676 -0.08146719 -0.002701727 -0.14859624 -0.14001033 -0.19726503
0.1407466 0.18670459 -0.015859408 -0.11498864 -0.14397192 0.05372865 -0.29905888 0.013718108
-0.024659967 -0.060206972 -0.12143487 0.095373735 -0.23654705 -0.076181315 -0.00040524008 -0.06984718
-0.033372603 -0.022132725 0.00057307974 -0.014670348 -0.028162217 -0.030343696 0.011872424 -0.10714709
-0.03363866 -0.12425812 -0.23405182 -0.10809764 0.11616871 0.097262196 -0.14317006 -0.21894798
-0.00092512293 0.05691871 -0.036616627 -0.07099186 -0.6244346 -0.033862233 0.050783362 0.08132914
-0.025983801 -0.040938973 -0.073680274 0.19174503 -0.052624725 0.16151962 0.2138851 -0.10303218
-0.017845405 0.16533369 -0.046525195 -0.086532734 0.06040519 -0.019602304 0.080893435 -0.10987059
0.41072735 -0.13091737 0.053039275 0.09169283 -0.03343495 0.11391511 0.16684453 0.15076253
0.019779282 -0.13098136 -0.16729489 0.02727168 0.077673055 -0.10854162 0.14431348 -0.048137024
0.097614944 -0.11222901 -0.034671184 -0.024836302 -0.27305093 -0.14399208 0.112638704 -0.019639371
-0.05859335 -0.11035486 0.007037823 -0.001149106 0.05154936 0.035706647 0.018593783 -0.08926275
0.27464828 -0.042856816 -0.06553355 0.03334909 0.009202161 -0.0141591355 -0.2836793 -0.11042748
0.17027724 -0.02265653 -0.08105114 0.010226662 -0.022196835 -0.114490084 -0.056559592 0.031084744
00000000: afd5 383d d682 313c c116 283e 7c78 fa3d
00000010: 2b9b d1bd 779a 853e c8d2 b23e 8dc8 c7bc
00000020: 16d1 11be 3c94 1e3e 639b e33c 7090 023d
00000030: 1e31 2c3d a184 de3d db0d 0fbd b24b eabd
00000040: c28a b43e b290 55bd 0d54 993d 2977 213e
00000050: c8c2 7d3e 98a0 773d 6d30 3b3c b7e8 0b3e
00000060: cbfd 153e 89d3 efbb 42f4 6c3e 9075 783b
00000070: 83c5 683d 515c 97bc 27cd 8b3c dc6d d3bd
00000080: b2f4 983d 1bc7 173e b138 4b3c cc28 f1bb
00000090: 8974 25be a147 d63d 279d 543e 7154 253d
000000a0: 1121 09bd 6623 d0ba d6ec a13d 28d1 29bd
000000b0: b005 8fbc 2c0f e83d 2776 df36 dc57 2fbe
000000c0: cd06 313e ed10 223d 85f5 1bbe 173b 9a3d
000000d0: 8293 17bd a232 e83d 9789 afbe de56 19bd
000000e0: fbfe 873e f60e 273e d16a 393e 01ec 70bd
000000f0: 9843 ec3c ed71 a03c a681 80bc 065e d53c
00000100: 5984 27bc 1652 7abd 4c2f efbd 3259 273d
00000110: e2b5 b93d b8f5 92bd a3c6 f5bc a87d 1d3c
00000120: a838 3cbd e19f 4abd d848 713d 4860 d1bd
00000130: 559a f6bd 1ab7 893d 2838 003d 0989 2abd
00000140: 9aeb c9bd 705f 13bd 2ceb b9bd 7e56 acbd
00000150: 004f 363c 0a4d dcbd 5534 a5bd 5fa1 193d
00000160: e29d 46bc 840d 14bd 4c56 6d3d 3846 e7bd
00000170: bd2b 7ebd e664 20be 53c0 6dbd 9b08 28bd
00000180: 1201 943d 088c f5bc 0cb2 debd 51ec a2bd
00000190: 4053 87bd e8ae b3bd 55a2 8a3d a0c6 363c
000001a0: 6ce6 19be 28f8 d93c 32e8 e9bd 9c2d 8dbd
000001b0: dc8a 6f3d 34fb 76bd 3c34 3e3d 90f8 bfbd
000001c0: 92a8 1bbd a59c 1bbe ecfc 96bd dcb4 d23d
000001d0: b680 bf3d 11c2 d5bd 0071 393b 7a33 fc3d
000001e0: 08c5 e2bc ca02 373d 387f e13c a2dd f9bd
000001f0: cd88 d3bd 2077 05bd 73d8 12be 98f1 bcbc
00000200: c391 263c 89ad c9be 4500 53bd 8b3a 50be
00000210: 40fb 84be 4fdb a5bd 045b 7b3d fae8 d3bd
00000220: fcbc bcbd 6863 d8bd b798 96bd 9f29 69be
00000230: e7f0 1c3e ef87 6d3e 9b40 d33d a484 4abd
00000240: 69ce 323e 112c c73d 36b3 623e 45d8 a6bd
00000250: 750f 31bb 9d29 18be de5e 0fbe d8ff 49be
00000260: e01f 103e 7d2f 3f3e 97eb 81bc 2a7f ebbd
00000270: 606d 13be 9312 5c3d 3f1e 99be eac1 603c
00000280: b303 cabc 969b 76bd d8b2 f8bd 4e53 c33d
00000290: 6439 72be f304 9cbd 6776 d4b9 0a0c 8fbd
000002a0: b6b1 08bd b04f b5bc bb3a 163a e65b 70bc
000002b0: 73b4 e6bc 5893 f8bc 8e84 423c ef6f dbbd
000002c0: b1c8 09bd 0b7b febd 48ab 6fbe 4c62 ddbd
000002d0: dce9 ed3d 6731 c73d 2c9b 12be e633 60be
000002e0: f383 72ba 9823 693d 51fb 15bd 2e64 91bd
000002f0: f2da 1fbf 20b3 0abd 3702 503d e48f a63d
00000300: fbdb d4bc a0af 27bd afe5 96bd cf58 443e
00000310: 068d 57bd 6665 253e b204 5b3e 8902 d3bd
00000320: 8730 92bc 3c4d 293e 3491 3ebd 1338 b1bd
00000330: 6f6b 773d 0395 a0bc 75ab a53d d503 e1bd
00000340: db4a d23e 340f 06be b63f 593d 73c9 bb3d
00000350: 16f3 08bd 534c e93d 4bd9 2a3e 7e61 1a3e
00000360: 2908 a23c fa1f 06be 5a4f 2bbe dc68 df3c
00000370: 0d13 9f3d 124b debd eac6 133e 542b 45bd
00000380: 58ea c73d 53d8 e5bd 5f03 0ebd 8075 cbbc
00000390: 55cd 8bbe a972 13be 1faf e63d bfe2 a0bc
000003a0: 95ff 6fbd bb01 e2bd 8a9d e63b 999d 96ba
000003b0: 6c25 533d 2241 123d fd51 983c 64cf b6bd
000003c0: b39e 8c3e a18a 2fbd 7436 86bd 0e99 083d
000003d0: a9c4 163c b8fb 67bc 6a3e 91be cd27 e2bd
000003e0: 285d 2e3e 309a b9bc 24fe a5bd bb8d 273c
000003f0: 23d6 b5bc c779 eabd 08ab 67bd 6fa5 fe3c

model.8.bias f4 [64]
0.00016673787 0.041665055 -0.0041997978 -0.13092443 -0.14699663 0.0046075336 0.16022502 -0.14728977
0.21676841 -0.036248263 0.023858141 -0.048145466 -0.27113143 -0.08641498 -0.12620887 0.17187196
-0.06125552 -0.016272908 0.07027221 0.035338074 -0.1853798 0.03212033 -0.048674036 0.15794492
0.18681812 -0.038117982 -0.14583866 0.0771666 -0.06777275 -0.021936323 -0.12010139 0.052886825
-0.23969196 0.14194584 -0.11905727 -0.116013005 -0.0029066007 -0.08690053 -0.06978664 0.112201124
0.07748225 0.2097173 0.020645045 -0.0548232 0.08480372 0.057376195 0.0704549 -0.12399621
-0.011847359 -0.11754734 0.0088060675 -0.124644935 0.13033181 -0.047810487 -0.11652639 -0.04691812
0.14507817 0.09934613 -0.00062818563 0.11011201 -0.09135877 -0.054781597 -0.05447786 -0.024342133
00000000: 5bd6 2e39 faa8 2a3d 759e 89bb 0e11 06be
00000010: 4986 16be cbfa 963b 0712 243e 21d3 16be
00000020: 8af8 5d3e 0f79 14bd 2672 c33c 2e34 45bd
00000030: bdd1 8abe 56fa b0bd e63c 01be 34ff 2f3e
00000040: 11e7 7abd c34e 85bc e0ea 8f3d a8be 103d
00000050: 34d4 3dbe 9b90 033d 6d5e 47bd 50bc 213e
00000060: 404d 3f3e 9a21 1cbd bb56 15be 8609 9e3d
00000070: 71cc 8abd ceb3 b3bc b8f7 f5bd db9f 583d
00000080: cf71 75be 405a 113e 4cd4 f3bd 3a98 edbd
00000090: ab7c 3ebb e8f8 b1bd 4cec 8ebd b4c9 e53d
000000a0: 04af 9e3d 22c0 563e cc1f a93c 4b8e 60bd
000000b0: 93ad ad3d 4d03 6b3d a94a 903d baf1 fdbd
000000c0: 6d1b 42bc a9bc f0bd 5347 103c d845 ffbd
000000d0: b475 053e eed4 43bd 63a5 eebd 372d 40bd
000000e0: 5f8f 143e fc75 cb3d d3ac 24ba 6882 e13d
000000f0: 4f1a bbbd ab62 60bd 2d24 5fbd 2769 c7bc

model.10.weight f4 [64, 64]
-0.37760144 -0.019887537 -0.10131126 0.01811322 0.10808581 0.10316798 0.16777195 0.10125873
-0.13173147 -0.16210726 -0.11572699 0.077893086 -0.032957602 0.08531135 0.14465256 0.075977884
0.034541033 -0.13427037 -0.15685087 0.018168986 0.17702764 -0.05287101 0.09410265 0.20366156
-0.07641546 0.099385515 -0.2680998 -0.18229444 -0.04405187 -0.10161146 0.20468186 -0.14880173
-0.09955952 -0.062142365 -0.043427803 0.020161048 0.15612242 -0.08181213 0.011628185 0.16175199
0.10972877 0.050211802 0.1295585 0.16816485 -0.010541715 -0.14105068 0.05141085 0.03714168
0.14830784 0.13809276 0.11794879 0.034953292 0.14036065 0.15294279 -0.06779667 0.13216105
0.14999999 -0.07645083 0.016535742 0.067542404 -0.078244254 -0.0037963165 -0.075804986 -0.09270567
0.08618347 0.12556459 -0.16505688 0.18980475 -0.056297824 0.05435712 -0.13118297 -0.09018571
-0.095194705 0.13142006 0.05275055 0.026684282 0.13222444 0.05292789 0.3252751 0.009759582
0.07714477 0.10805186 0.16403206 -0.08125258 0.07328167 0.043465853 0.097977236 -0.13476536
0.112580344 0.079496145 0.14546965 0.077481 -0.0009340107 -0.020680698 0.10359577 0.21976271
-0.1393301 -0.02744916 0.11404824 -0.08997445 0.011709463 0.1361068 0.064530924 -0.14704458
0.065897755 0.10661361 0.044749256 -0.22151896 -0.22597642 -0.01588676 -0.1978707 -0.006222767
-0.23198321 -0.05482523 -0.01477657 0.047466062 -0.16590822 -0.08026752 -0.00037404886 -0.13364342
0.13088307 0.036869943 0.08974212 0.0017541981 -0.01487603 -0.01598248 0.006420118 0.034284048
-0.12125436 -0.016227588 0.041605245 -0.034116372 -0.054378085 0.087227814 -0.034560326 0.095908426
0.03546807 -0.086910196 0.09180082 0.115501 -0.059477188 0.11415859 0.61079603 0.057395305
0.014325723 0.14584604 -0.08752428 0.035317685 -0.05749848 0.16526912 0.1342825 -0.03914505
0.1575478 0.15915273 -0.07978719 -0.048865125 0.09220998 0.13331564 0.030249842 0.67575526
-0.06574441 0.15967444 -0.076901615 0.046587083 -0.012514067 -0.026540864 0.0008926163 -0.05491454
0.08309722 0.09395191 -0.16121797 -0.09181229 0.12718129 -0.04095713 -0.13630854 -0.17658237
-0.0008860171 0.24617018 -0.00658751 -0.043655228 -0.031922493 0.02461749 -0.087561995 -0.18613112
0.19151156 0.11366386 -0.02397362 0.19990242 0.13829641 0.004179974 0.02522996 0.0031049126
-0.015329102 0.10206761 0.024268871 0.19563732 -0.030764744 0.0901863 -0.14655328 -0.030707477
-0.12991564 0.14711514 0.0675223 -0.0012554755 0.29078704 0.08821628 0.015299654 -0.03709258
0.038009115 0.06843252 0.0068790046 -0.16857336 -0.09019271 0.030568352 -0.081984445 -0.19006893
0.14439926 0.042130765 0.08472246 0.06557489 0.05769004 0.13467239 0.015278135 0.06565209
0.047692258 0.15088479 0.11873035 0.13057333 0.101997636 -0.024947897 -0.0585299 -0.07052924
-0.016772546 0.14502566 -0.022685025 -0.1800092 -0.1842218 0.13450529 -0.053538755 -0.06563009
-0.132782 -0.1074575 -0.16211632 0.10874775 -0.076637134 0.11536588 -0.09737559 -0.114161424
0.042587526 -0.040793806 -0.12812634 0.04432337 0.053914115 0.107124545 -0.038365573 -0.088264674
00000000: fa54 c1be 30eb a2bc 477c cfbd 2d62 943c
00000010: 185c dd3d bc49 d33d 69cc 2b3e bd60 cf3d
00000020: 9de4 06be 72ff 25be 4602 edbd 6986 9f3d
00000030: 8dfe 06bd b8b7 ae3d cd1f 143e 4b9a 9b3d
00000040: e67a 0d3d 2c7e 09be 849d 20be 20d7 943c
00000050: bc46 353e 468f 58bd e4b8 c03d a88c 503e
00000060: b57f 9cbd a28a cb3d 6144 89be 65ab 3abe
00000070: bc6f 34bd ab19 d0bd 1f98 513e 7b5f 18be
00000080: dde5 cbbd fe88 7ebd 5ae1 31bd c828 a53c
00000090: 8ede 1f3e 1e8d a7bd 2584 3e3c 50a2 253e
000000a0: 7ab9 e03d e4aa 4d3d fcaa 043e 6833 2c3e
000000b0: 28b7 2cbc 976f 10be 2f94 523d e021 183d
000000c0: 03de 173e 3068 0d3e 238f f13d 2f2b 0f3d
000000d0: b4ba 0f3e 099d 1c3e fbd8 8abd 3a55 073e
000000e0: 9999 193e 4192 9cbd f775 873c ac53 8a3d
000000f0: 863e a0bd 9fcb 78bb a53f 9bbd 78dc bdbd
00000100: f680 b03d 0194 003e ac04 29be 2d5c 423e
00000110: 8c98 66bd 92a5 5e3d d454 06be 49b3 b8bd
00000120: 71f5 c2bd fb92 063e f610 583d ff98 da3c
00000130: d865 073e eaca 583d 758a a63e a7e6 1f3c
00000140: 14fe 9d3d 4b4a dd3d 05f8 273e c167 a6bd
00000150: b314 963d 4009 323d 4aa8 c83d eeff 09be
00000160: 8690 e63d e0ce a23d fff5 143e 5cae 9e3d
00000170: 66d8 74ba 916a a9bc 052a d43d 7a09 613e
00000180: 8dac 0ebe 10dd e0bc 2092 e93d 8644 b8bd
00000190: 0cd9 3f3c 955f 0b3e ca28 843d db92 16be
000001a0: 67f5 863d 3d58 da3d ff4a 373d ded5 62be
000001b0: 5d66 67be f324 82bc 9e9e 4abe 5ae8 cbbb
000001c0: 028d 6dbe 6c90 60bd 6d19 72bc c66b 423d
000001d0: d8e3 29be 4c63 a4bd fd1b c4b9 d2d9 08be
000001e0: 3606 063e f004 173d b7ca b73d 1fed e53a
000001f0: 98ba 73bc b1ed 82bc da5f d23b 6e6d 0c3d
00000200: 3554 f8bd b8ef 84bc 436a 2a3d 9cbd 0bbd
00000210: 8ebb 5ebd 7fa4 b23d 218f 0dbd a36b c43d
00000220: f846 113d f9fd b1bd 1102 bc3d ca8b ec3d
00000230: 5a9e 73bd fbcb e93d 215d 1c3f 5717 6b3d
00000240: 70b6 6a3c aa58 153e ee3f b3bd 47a9 103d
00000250: 8783 6bbd 4f3c 293e 5a81 093e 8f56 20bd
00000260: 3654 213e eff8 223e 7767 a3bd cc26 48bd
00000270: 96d8 bc3d e583 083e 84ce f73c 4cfe 2c3f
00000280: 01a5 86bd b281 233e 987e 9dbd 19d2 3e3d
00000290: cd07 4dbc 3a6c d9bc 77fe 693a 12ee 60bd
000002a0: e02e aa3d dc69 c03d 5316 25be 1508 bcbd
000002b0: d03b 023e aac2 27bd 7794 0bbe 02d2 34be
000002c0: 9a43 68ba 0914 7c3e 0adc d7bb d3cf 32bd
000002d0: 29c1 02bd 9eaa c93c b453 b3bd 2899 3ebe
000002e0: 9b1b 443e 99c8 e83d 5364 c4bc 38b3 4c3e
000002f0: 939d 0d3e 2af8 883b 10af ce3c ca7b 4b3b
00000300: ea26 7bbc d308 d13d 83cf c63c 2655 483e
00000310: 5806 fcbc 98b3 b83d 1012 16be 3f8e fbbc
00000320: 9b08 05be 5aa5 163e 2249 8a3d c48e a4ba
00000330: 0ae2 943e bdaa b43d 66ab 7a3c 64ee 17bd
00000340: 72af 1b3d 5926 8c3d 4669 e13b 7f9e 2cbe
00000350: f5b6 b8bd 7b6a fa3c 76e7 a7bd 6ea1 42be
00000360: 66dd 133e 4f91 2c3d f882 ad3d 214c 863d
00000370: 644c 6c3d 8fe7 093e 2551 7a3c 9a74 863d
00000380: f558 433d 8b81 1a3e e628 f33d 04b5 053e
00000390: 23e4 d03d 885f ccbc 0cbd 6fbd a271 90bd
000003a0: 9466 89bc 9b81 143e f2d5 b9bc 5554 38be
000003b0: a4a4 3cbe c1bb 093e 744b 5bbd 1269 86bd
000003c0: 01f8 07be ae12 dcbd d201 26be 24b7 de3d
000003d0: eef3 9cbd f244 ec3d da6c c7bd 77cd e9bd
000003e0: 4270 2e3d 6817 27bd 8d33 03be 6c8c 353d
000003f0: 0cd5 5c3d 1d64 db3d 3825 1dbd 1cc4 b4bd

model.10.bias f4 [64]
-0.11308843 -0.04283948 -0.041836374 0.004989351 -0.029249605 0.08364355 0.010570775 -0.22698535
0.062394023 0.03426084 -0.28775755 0.018089388 -0.1696032 -0.115302905 0.21632501 -0.09778463
0.08513153 0.004089326 0.2122286 -0.02119412 0.009871141 0.12285682 0.10011949 -0.11371767
-0.10370022 0.2154255 -0.008072565 0.030989874 -0.07291504 -0.051055893 -0.04789506 -0.08400126
-0.04451958 -0.007087281 0.17037193 0.06753328 0.034495573 -0.06286321 0.11313196 0.007492669
-0.269862 -0.16918583 0.012705698 0.45242742 0.23474641 0.02133938 0.027033245 0.03382909
0.01360413 -0.07343587 0.1524006 -0.104398414 0.027239785 -0.09677216 0.19171636 0.049371175
-0.12974596 0.20367399 -0.020178048 0.085842244 -0.120831534 -0.013914156 0.035634603 0.20076312
00000000: e89a e7bd 7378 2fbd 9e5c 2bbd b67d a33b
00000010: de9c efbc 4f4d ab3d 0b31 2d3c d96e 68be
00000020: e090 7f3d 1855 0c3d f554 93be 3230 943c
00000030: 76ac 2dbe ee23 ecbd 4e84 5d3e 4f43 c8bd
00000040: 7159 ae3d c1ff 853b 7452 593e 4b9f adbc
00000050: 91ba 213c 5b9c fb3d 720b cd3d cfe4 e8bd
00000060: c860 d4bd 8198 5c3e cb42 04bc 7ade fd3c
00000070: 7b54 95bd fc1f 51bd 9c2d 44bd da08 acbd
00000080: 2a5a 36bd 6c3c e8bb fb75 2e3e e34e 8a3d
00000090: 3b4b 0d3d 6dbe 80bd bbb1 e73d 1085 f53b
000000a0: 5a2b 8abe 0d3f 2dbe 8f2b 503c 91a4 e73e
000000b0: 5d61 703e eccf ae3c d374 dd3c 5f90 0a3d
000000c0: dbe3 5e3c 8c65 96bd e70e 1c3e d6ce d5bd
000000d0: f825 df3c 7b30 c6bd 4b51 443e 6e39 4a3d
000000e0: 20dc 04be ea8f 503e 6f4c a5bc 0fce af3d
000000f0: 8676 f7bd 33f8 63bc 97f5 113d d994 4d3e
